Part2/Models/model_4.pt (torch, 37087 bytes, 4 tensors)

i2h.weight f4 [64, 121]
000000 d5 8b f3 3d 02 fc 82 bd 8d d8 92 3d 67 c8 0f be
       0.11891905 -0.06395723 0.0717021 -0.14041291
000010 81 18 1e 3d 28 e6 1e 3e 99 47 6b bd 73 a7 9a 3c
       0.038597587 0.15517485 -0.057441328 0.018878674
000020 8c 01 87 3c b3 a0 2a 3d 38 5f 14 be 92 f5 0d 3d
       0.01648023 0.04165716 -0.14489448 0.034658022
000030 44 1a 91 3d 19 93 a7 bd b6 11 ef 3d 25 b1 f7 bd
       0.07085088 -0.081823535 0.116733 -0.120943345
000040 c6 55 e4 bc e8 f5 04 3e 57 fb 41 bc 5f ab b9 bd
       -0.027872931 0.12984431 -0.011839709 -0.090658896
000050 a6 de 95 3d 25 93 b8 3d b0 09 32 be 4e 3e 30 bd
       0.073178574 0.090124406 -0.17386508 -0.04302817
000060 db 5e d7 3d 17 07 32 be d5 89 af bd 89 53 99 bd
       0.10516139 -0.17385517 -0.08571211 -0.07486636
000070 80 d4 7b 3b 10 cb f6 3c 7e d7 80 3d 58 0a a1 3d
       0.003842622 0.030126125 0.06291102 0.07863301
000080 c4 1b 49 3d 48 92 f4 3c d2 35 1c bd b0 d9 b8 bd
       0.049098745 0.029854909 -0.038137265 -0.090258956
000090 f2 50 b4 3d 72 db a4 bd 98 f9 fc 3c 40 0d da bc
       0.088045016 -0.08049668 0.030880734 -0.026617646
0000a0 98 14 ca 3c 44 de 93 3d 10 f1 a5 bc 86 12 a2 3d
       0.024668023 0.07220128 -0.02025655 0.07913689
0000b0 7a 2d 93 bd dc 18 8b 3d 3a ff 1d bd 43 ab 6c bd
       -0.07186408 0.06791851 -0.03857348 -0.057780515
0000c0 12 2a f9 bc 90 15 75 3c e8 a7 8f bd b8 ab 11 3d
       -0.030415569 0.014958754 -0.070144475 0.035564154
0000d0 66 d8 e1 bd 4c 1e 12 bd b6 18 90 3d 64 31 a5 3c
       -0.11027603 -0.035673425 0.07035963 0.020165153
0000e0 97 ce 53 bd aa e1 49 3d 94 76 9e 3c 05 b0 00 3c
       -0.05171069 0.049287476 0.019343652 0.007854466
0000f0 6c d6 5f bc 32 0f 51 3d 88 e0 04 3d f9 7f e3 bd
       -0.013661962 0.051039882 0.032440692 -0.11108393
000100 25 49 96 bc 5c b8 4c 3d a7 b2 48 3d c0 78 af bc
       -0.018345425 0.049980506 0.0489985 -0.021419883
000110 62 1f 47 bd 05 b4 e4 bd 09 6a 3f 3d f3 c3 6b bb
       -0.048613913 -0.111671485 0.046731982 -0.003597495
000120 0d 6e a9 bd 10 f2 16 3e 1f 33 d7 3d 70 fd a8 3c
       -0.08272944 0.14740777 0.105077974 0.02062866
000130 07 2a 04 3e ec 4a 20 3d d6 34 49 bd 60 67 91 3c
       0.12906657 0.03913395 -0.049122654 0.017749488
000140 e2 75 6c 3c f4 b0 94 bd 96 e7 95 bc c2 93 96 bc
       0.014432402 -0.07260314 -0.018298905 -0.018381003
000150 ff 72 df 3c c6 25 4d bd 8a b9 9a bc 02 15 10 bd
       0.027276514 -0.05008485 -0.0188873 -0.035176285
000160 6e c6 75 bc a4 64 c0 bd 78 62 c3 bd bc 4e 9c bc
       -0.015000923 -0.09394196 -0.09540266 -0.019080512
000170 a8 73 71 3c 38 93 68 bc 45 74 c1 3d 9b d9 fc bc
       0.014737047 -0.014195256 0.09446005 -0.030865481
000180 7c 0b cd 3d 04 c9 81 3d 55 fd 2c 3d f1 db 93 bd
       0.10011956 0.06337169 0.042233784 -0.07219685
000190 2c 46 a4 bc 57 ce 06 3d 34 da de 3c bb da 93 3c
       -0.020052992 0.032911625 0.027203657 0.018048635
0001a0 ba 09 de bc d6 35 c6 3d 4d e4 c6 bd 5a 7f 98 bd
       -0.027104247 0.09678237 -0.09711514 -0.074461654
0001b0 a9 e0 37 3d 02 12 55 3e 4f 51 6a bc 12 08 4c bd
       0.044891987 0.2080765 -0.014301612 -0.049812384
0001c0 39 92 b9 bc 0c 0d 63 3d ad 4c 9d bd ab 96 ef bc
       -0.022652732 0.055432364 -0.0768064 -0.029246649
0001d0 78 6b 1d 3d ba e7 b7 3c 2e 6e 1a 3d 74 60 fe 3b
       0.03843257 0.022449363 0.03770273 0.007762963
0001e0 62 e5 b5 3d ea f5 04 3e ef 10 0e be ce c0 38 be
       0.08881642 0.12984434 -0.13873647 -0.18042299
0001f0 9f 5a c8 be 0a f4 c5 be 7a 10 00 3e 29 24 1d 3e
       -0.39131638 -0.3866275 0.12506285 0.15345825
000200 17 a1 73 3e 54 d8 9d 3e cb f3 fb 3c a4 42 6c 3e
       0.2379192 0.30829108 0.030755898 0.23072296
000210 46 19 fd bd 56 80 20 3c ef 38 93 3c 84 e9 6d bd
       -0.12358336 0.009796223 0.017971484 -0.058084026
000220 1b ca 21 bc fe 31 13 3e ab 1c cc bd 48 5e a6 bd
       -0.009874846 0.1437454 -0.099664055 -0.081234515
000230 64 65 5f bc ab 24 07 bd a8 c4 2d be f3 ce 3b bd
       -0.013635013 -0.032993954 -0.1696955 -0.04585166
000240 5b 7e 79 3c f3 90 d0 3d 88 0a e0 bd 60 69 e8 3b
       0.015227879 0.10183897 -0.10939509 0.00709264
000250 4c 9d 66 3d 78 2f 8b bd 6c c6 2d bd be d9 06 3d
       0.056302354 -0.06796163 -0.042425558 0.0329225
000260 c0 1c d1 3a 3d c8 ab bd ac e3 8a bd b0 10 67 3c
       0.0015954003 -0.08387802 -0.06781706 0.0141031
000270 78 b8 73 bc c0 97 88 3d d8 40 9c bc ce df a3 3d
       -0.014875524 0.06669569 -0.019073889 0.08001672
000280 1a b3 12 bd 30 0f c5 bc b8 5a 73 3d 60 90 dd 3b
       -0.035815336 -0.024055094 0.059412688 0.0067615956
000290 ea e9 fa bc 60 38 95 3d 48 87 94 bc a0 c5 9a bb
       -0.030629117 0.07286143 -0.018130913 -0.0047232658
0002a0 80 d9 2d bc dd 7c 49 bd 30 07 6e 3c e0 e1 1c bd
       -0.010610938 -0.049191345 0.014528081 -0.03830135
0002b0 d8 d1 94 3d fa 8b df 3c 9d 3c a6 3c ac 56 00 3d
       0.07266587 0.027288426 0.020292575 0.031332657
0002c0 3a 8d 10 bd 8a 11 9a 3a 07 99 01 3d 26 0a a6 3d
       -0.035290934 0.0011754495 0.03164008 0.081074044
0002d0 04 94 83 bd 98 78 ab bd 64 80 e8 bd 6e 90 34 bb
       -0.06424716 -0.08372611 -0.113526136 -0.0027551907
0002e0 01 8b 0e 3d 06 0f 8f 3d a5 15 c8 bc 6d fd cc bd
       0.034800533 0.06985287 -0.024424383 -0.10009275
0002f0 14 6a d2 bc 38 a0 99 3c da 34 8a bd fd d2 4f bd
       -0.025685348 0.018753156 -0.06748362 -0.050738323
000300 80 87 9a 3d 77 7a 6b bd 12 9e 81 bd e5 dd bb 3c
       0.07545376 -0.05748984 -0.06328978 0.022932956
000310 15 6c f7 bc 6c eb 1c 3d 0d 93 28 bc 2d c9 87 3d
       -0.030202905 0.038310453 -0.010288966 0.06630168
000320 46 4a 2e 3d 83 c5 c0 3d 7e 6c b9 bc 60 d7 96 3d
       0.0425513 0.09412672 -0.02263474 0.07365298
000330 5a d4 75 bb 1f 5e 95 bd 99 1b 19 3d 6b d2 89 3c
       -0.0037510605 -0.07293343 0.037379835 0.016823968
000340 e7 4b de bd 51 95 24 bd f6 7a 78 3c 5c 38 9c bc
       -0.10854321 -0.04018146 0.015166035 -0.019069843
000350 47 8b b0 3d 8a 82 61 be bf da c7 bc 80 e6 af 3d
       0.08620315 -0.22022453 -0.024396298 0.08588886
000360 f3 c6 60 bd f1 dd 23 3e 26 50 83 3c ce 98 83 3d
       -0.054877233 0.16002633 0.016029429 0.064256296
000370 1e 68 97 bd da ab 94 3c 8a fe 31 bb 78 08 e5 bc
       -0.07392906 0.018148351 -0.0027159774 -0.02795814
000380 93 04 1f 3d b4 80 59 3c 09 d2 c9 3c de 55 15 3d
       0.03882272 0.013275314 0.024636285 0.036458842
000390 ba b5 b7 3d 04 75 a9 3d 06 6a 18 3c 2d 1c 0c bc
       0.089702085 0.08274272 0.009302622 -0.0085516395
0003a0 a9 49 a7 bb 16 76 84 bc 5a 83 06 bd 3f d4 2e 3e
       -0.0051052165 -0.016169589 -0.03284011 0.17073153
0003b0 ad 11 a0 3d f2 cd 6a bc b0 37 1e 3e 15 d8 2a 3d
       0.078158714 -0.014331328 0.1545093 0.041709978
0003c0 96 cf 29 3c aa d5 d1 bd 97 e4 56 bd 8f 72 aa 3d
       0.010364434 -0.10245831 -0.052464094 0.083226316
0003d0 92 43 99 3d 02 3d 78 3d c1 4f 5d 3c cb 37 68 be
       0.07483591 0.060605057 0.013507784 -0.22677533
0003e0 11 ce aa bc 36 fd 5d bd 9e 7b 4f be fb 59 ad bc
       -0.020850213 -0.05419656 -0.20262 -0.02116107
0003f0 7e db 64 3e 35 8e 39 bd ec 8d 77 3d e1 13 0a be
       0.22349355 -0.045301635 0.06043808 -0.13484146

i2h.bias f4 [64]
000000 70 d4 06 bd db ea 97 bc 5c f2 f7 bb 20 a1 3b bc
       -0.03291744 -0.018544605 -0.0075667333 -0.011451989
000010 48 ba d3 3c 44 01 ff 3c 89 5c 78 3c b0 ff 9d b9
       0.025845662 0.031128533 0.015158781 -0.00030135876
000020 a4 d5 22 3d 54 69 09 3d 5a 77 94 3c d8 9d 20 bc
       0.039754525 0.033547714 0.018123318 -0.009803258
000030 cc 81 61 bc 26 d3 f5 3c a4 a6 06 bc 8f 95 7a bc
       -0.013763856 0.03000791 -0.008218441 -0.015294447
000040 f1 d0 26 bd ba 6f a2 3c a2 93 4d 3c 76 bb 88 3c
       -0.040726606 0.019828666 0.012547405 0.01669095
000050 86 58 e3 bc 96 ed 92 bc ad 91 10 bc 41 5b 1a bd
       -0.027752172 -0.017935555 -0.008823794 -0.037684683
000060 a9 0a 52 3c 86 3c 19 bd da 04 3b bc 5c 96 f7 bc
       0.012819924 -0.037411235 -0.011414731 -0.030223064
000070 eb 5f 11 bd ef a7 ff 3c 88 70 f9 bc c4 3e 73 bc
       -0.035491865 0.031208007 -0.030449167 -0.014846507
000080 52 13 8c bc 63 12 ff bc 7e 0a 0e 3b b6 f5 2e bc
       -0.017099056 -0.031136697 0.0021673734 -0.010678699
000090 ee 4f b5 3b a6 e1 80 3c e4 ed cb bb 58 70 74 3c
       0.00553321 0.015732598 -0.006223427 0.014919363
0000a0 2f e3 24 bc c2 e1 d9 3c dc 4d 45 3c 66 5a bf 3c
       -0.01006393 0.026596908 0.012042489 0.023358535
0000b0 6d df 9a 3c 5a f2 05 3d a7 23 79 bc f1 f9 80 3c
       0.018905366 0.032701828 -0.015206254 0.015744181
0000c0 ee b9 96 3d 6a 2e c2 3c c1 b9 15 bd a5 b6 36 3b
       0.07359682 0.023703773 -0.0365541 0.002787986
0000d0 10 b9 3a 3d 2f 70 4d 3c f4 61 b8 ba c1 51 a5 3b
       0.045586646 0.012538954 -0.0014067278 0.005045146
0000e0 28 77 8c 3b df 8f 37 3d fc e9 01 bd 26 5b 92 bc
       0.0042866655 0.04481494 -0.031717286 -0.017865729
0000f0 3e a5 91 3c 72 97 a1 bc 78 4a 92 3c 8b 31 4c bc
       0.017778989 -0.019725535 0.017857775 -0.012462984

i2o.weight f4 [9, 121]
000000 14 0a 22 3e b7 44 8e 3d 79 f8 ab bd 87 7d a1 bc
       0.15824157 0.069467 -0.08397002 -0.019713176
000010 05 61 e6 be 2d a6 74 3e 45 b4 d3 bd 07 f3 24 3f
       -0.44995895 0.23891516 -0.10337118 0.6443333
000020 d5 de ae bd 17 6c 72 3d 7c d1 d7 3e ff 0b 99 3e
       -0.085385956 0.059185114 0.4215201 0.29891965
000030 4d 0f 95 3b 63 88 d1 be 98 4f c1 be 56 13 40 3d
       0.004548943 -0.40924367 -0.37756038 0.04689344
000040 35 9c ec 3d c6 75 1d be 1b 5f a7 be e4 f8 80 bd
       0.115532316 -0.15376958 -0.32689747 -0.06297472
000050 6c 6b 4b be c4 c2 6a bd bb 13 48 3e a1 f1 9e bd
       -0.19865197 -0.05731465 0.19538777 -0.07760931
000060 74 e1 37 3f 68 ce b9 3d 4a 89 83 bd 24 21 25 3d
       0.7182839 0.09072572 -0.0642267 0.04031481
000070 1e f9 57 bd f4 ea 76 3d d8 c5 88 bd 64 bb f2 bc
       -0.05272781 0.060282663 -0.06678361 -0.02963037
000080 18 90 66 bc d9 c4 9c bd 8c 9d 24 bd 8d 0b b0 bd
       -0.014072441 -0.07654733 -0.04018931 -0.08595953
000090 68 c8 2d bc a4 db 8a 3d 38 a3 79 3d 49 7a 81 bd
       -0.010606863 0.067801744 0.060946673 -0.06322152
0000a0 ef aa 5e bd 6c 55 05 3d 4c ca 81 3c 20 bd 54 bb
       -0.054362234 0.032552168 0.015843533 -0.003246136
0000b0 5a 6a a6 3d 00 e3 e5 b9 09 d7 a7 bd d0 bc 26 3d
       0.08125754 -0.00043847412 -0.081953116 0.04070741
0000c0 e2 d1 b2 bd 48 25 0b bc d4 76 65 3d e3 4f 5e bd
       -0.08731438 -0.008492775 0.056021526 -0.054275405
0000d0 df ea 49 3d 38 5f 20 bd 00 08 3d 39 f4 83 a6 bc
       0.049296256 -0.039153308 0.00018027425 -0.020326592
0000e0 09 cb 89 3e c7 f2 8d 3d d4 e0 05 be 6d bd 25 3d
       0.26912716 0.06931072 -0.13074046 0.040463854
0000f0 fb 40 97 3c ca 91 7b bd d1 a0 54 be 69 84 14 be
       0.018463602 -0.061418332 -0.20764472 -0.14503635
000100 bb dc 9c 3d cc 05 f0 3d fe 33 a0 be 9d d0 5a be
       0.076592885 0.11719856 -0.31289667 -0.21368642
000110 60 69 cd 3d 9f 1c f0 bd 2f 88 17 be 8f c9 94 3d
       0.10029864 -0.11724209 -0.14798044 0.07265007
000120 80 0e 3b 3e 95 a5 a5 3e f2 c2 a5 be 6e 38 8f be
       0.1826725 0.32352892 -0.32375294 -0.2797274
000130 b5 4e 4d 3e 85 96 7e be 00 c8 98 3d cb d2 8c bd
       0.20049556 -0.24862106 0.07460022 -0.06876143
000140 9e 93 7a 3e 65 18 47 3e d4 40 b6 bc 81 d3 fe 3d
       0.24470374 0.194429 -0.02224771 0.12442685
000150 72 3e b9 bd c0 4a 68 bd 4b 6d b7 bd 4c 24 70 bd
       -0.090451136 -0.056711912 -0.08956393 -0.058628365
000160 5a 30 f6 bc 74 78 de 3c 0a bd f9 3d cb a7 d3 bd
       -0.030052353 0.027157046 0.121942595 -0.10334738
000170 4b e0 6c 3d 6a cc 0c 3c 26 9d 51 3d 90 70 c8 3d
       0.05783109 0.008593658 0.05117526 0.097870946
000180 bc a1 02 3e be cd 03 be 3c 6d 7b bd 57 d3 bc bc
       0.1275701 -0.12871453 -0.06138347 -0.023049993
000190 33 a4 2f bd 99 56 0e 3d 55 66 1a be 9d c5 2d bd
       -0.042881202 0.034750555 -0.15078099 -0.042424787
0001a0 a8 43 7d be 33 0b 05 be 11 3e 8f 3e 64 9b 1f 3b
       -0.2473284 -0.12992553 0.2797704 0.0024354095
0001b0 b8 25 7c 3d a8 c2 8a 3d 59 7c ba 3c 82 2a 1c 3e
       0.06155941 0.06775409 0.022764372 0.1525059
0001c0 ce 89 61 3e 68 17 04 3d 67 57 2e bc d0 6e 57 3d
       0.22025225 0.032248884 -0.0106409555 0.052595913
0001d0 9d 60 d2 bd a0 9b 97 be 6e e9 79 3e 28 71 13 be
       -0.10272334 -0.2961092 0.24405453 -0.14398634
0001e0 c5 67 bc 3e a4 09 d6 be bf 70 1a bc f3 74 1b be
       0.3679792 -0.4180423 -0.009426295 -0.15181331
0001f0 22 fb 93 be 77 61 a5 be 8a 9a 09 be 7b 76 b5 3f
       -0.28902537 -0.32300922 -0.13437858 1.4176782
000200 a7 58 9b be 85 75 d3 3e e7 6c a9 ba 9c bd 83 be
       -0.30341074 0.41300598 -0.0012926132 -0.25730598
000210 9f 0d ca be c9 a5 27 be 2e a9 4c 3f 87 ab b4 3e
       -0.39463517 -0.16371836 0.7994565 0.35287115
000220 13 90 0c 3d 65 1d 96 bd f4 9c 1e bf 96 d6 dd be
       0.034317087 -0.07329825 -0.6195824 -0.4332778
000230 49 17 d3 be 1c 4c 90 3f 82 cf d8 bd e2 41 06 bd
       -0.41228703 1.1273227 -0.10586454 -0.032777674
000240 8e 38 a4 bd 17 76 c2 be 6a 0f 65 bd ed 42 9e bd
       -0.080185995 -0.3798072 -0.055922903 -0.07727609
000250 64 5a ba bc b0 f4 64 3d 48 10 b0 3c 03 2b b7 bd
       -0.02274818 0.055897415 0.021492139 -0.08943751
000260 ee b3 8e 3d 0c 31 4c bd 5f 43 80 bd 06 ab 14 bd
       0.069679126 -0.049851462 -0.0626285 -0.036295913
000270 a4 96 29 3d 2c f8 91 bd 16 20 ba 3d c9 43 52 bd
       0.041403428 -0.07127413 0.09088151 -0.051334176
000280 24 8c 57 3d 4c 35 b0 3c 98 ec ab 3c aa e5 85 3d
       0.052623883 0.021509789 0.02098684 0.065379456
000290 5c b2 d9 3c 04 73 9b 3d d0 53 fd bb 60 7a 8c 3d
       0.026574306 0.07590297 -0.0077309385 0.06859279
0002a0 d8 ee 96 bd 00 c7 55 bd ac ec a0 3d c8 f4 10 3d
       -0.073697746 -0.052191734 0.078576416 0.03538969
0002b0 a8 da 5f 3d 60 84 27 3b 4a bd ae bd 70 df f9 bc
       0.054651886 0.002556108 -0.08532198 -0.030502051
0002c0 0c b9 35 3d 23 6f a5 bc 11 05 2a be 03 dd 01 3e
       0.044365928 -0.020194596 -0.16603495 0.12681966
0002d0 c2 b6 57 bd 96 58 10 3e f2 be 42 3e 01 52 64 be
       -0.052664526 0.14096293 0.19018152 -0.22296907
0002e0 3d 8b 15 3c 94 f1 cd be 0c 05 40 be 15 1a e8 3e
       0.009127435 -0.40223372 -0.18751925 0.453324
0002f0 28 e3 34 bd 34 53 70 3c 85 8b b8 bd 96 53 1c 3e
       -0.044161946 0.014668275 -0.09010986 0.1526626
000300 02 32 be 3e 9b bf c4 bd 29 c4 8f 3d cd 23 c7 bd
       0.37147528 -0.09606858 0.070198365 -0.09723625
000310 88 7a 34 3e ee f2 09 be b0 e0 ff 3d 09 0d 11 be
       0.17624867 -0.13471577 0.124940276 -0.14165129
000320 ac 00 b1 3e e3 9c 85 be 1f 77 ce 3c 86 42 80 bd
       0.34570825 -0.26096258 0.025203286 -0.06262688
000330 85 db 0a 3e 58 0d 00 3f 51 4c c1 3d 8b bd 2f 3e
       0.13560303 0.5002036 0.09438384 0.17162149
000340 31 fb 95 3d 14 bd dc 3d 9a 64 99 be 3b ca 82 be
       0.073233016 0.10778251 -0.29959565 -0.25544915
000350 a0 53 34 be fc 3d bb be eb b8 36 3d 72 44 da bd
       -0.17610025 -0.36570728 0.044609945 -0.10657586
000360 28 78 04 be 08 4b 60 3d 31 86 8b 3e ea 3a 03 3e
       -0.12936461 0.054759055 0.27250817 0.12815443
000370 fb 24 15 bd f6 1d 94 bd c8 52 b5 bb e3 24 65 3e
       -0.03641222 -0.07232277 -0.00553355 0.22377352
000380 22 b3 82 be b2 7a be 3d d5 32 07 bc bc 5b 20 3f
       -0.25527292 0.09300746 -0.008251865 0.62639976
000390 2e e9 f2 3e 09 5f 01 3f 19 c8 45 be 52 49 a6 3d
       0.47443527 0.5053564 -0.19314612 0.081194535
0003a0 79 69 d0 3e e7 0d 64 be fc 78 3e 3e 39 73 84 3e
       0.4070547 -0.22270928 0.1860084 0.25869158
0003b0 c7 bf b6 3c 1a 09 ff 3d 2f 64 7a 3d 53 9d 39 bd
       0.022308243 0.12452908 0.0611307 -0.04531605
0003c0 f7 f0 fb bd b5 16 eb be 67 4f 9f be a2 ea 05 be
       -0.1230182 -0.45915762 -0.31115267 -0.13077787
0003d0 50 53 72 bd a6 d3 81 3d e2 db a7 3e 93 9b 82 3e
       -0.059161484 0.06339197 0.32784945 0.2550932
0003e0 0f 82 d8 3d 54 d2 92 3c 58 ba 3b bf 18 0e a2 bd
       0.10571682 0.017922558 -0.73331213 -0.079128444
0003f0 88 61 64 3b eb 9e f9 3d 6c 19 f9 3d 61 39 ce 3d
       0.0034848172 0.12188514 0.12163052 0.10069538

i2o.bias f4 [9]
000000 71 3a cc 3e 92 d1 f2 be 3d ba 5a 3d 01 2d d0 bd
       0.39888337 -0.47425514 0.053400267 -0.10164834
000010 c3 c0 55 be 51 52 9a bb 33 05 b3 3e cb 69 37 3d
       -0.20874314 -0.00470952 0.34964904 0.044778626
000020 b7 bd 0e be
       -0.13939558
