Part2/Models/model_2.pt (torch, 103391 bytes, 4 tensors)

i2h.weight f4 [128, 185]
0	0x3da89a08	0.08232504
1	0xbd4ccb7a	-0.049998738
2	0xbdf6c523	-0.120493196
3	0xbe3f140b	-0.1865999
4	0xbe24b264	-0.16083676
5	0x3e95dcd6	0.29270047
6	0xbd5b7a8a	-0.05358366
7	0x3e4086ef	0.18801473
8	0x3e22d6c8	0.15902245
9	0x3c75ada8	0.014995016
10	0x3cc7e17f	0.024399517
11	0xbcb0406a	-0.02151509
12	0xbd76150c	-0.060078666
13	0x3dadbea2	0.08483626
14	0xbd0e01e8	-0.034669787
15	0xbb8b728c	-0.0042555984
16	0x3db05566	0.086100385
17	0xbe0e771d	-0.13912626
18	0xbcadd665	-0.021220395
19	0xbd60bc90	-0.054867327
20	0x3dc90eb4	0.098172575
21	0x3cda8d40	0.026678681
22	0xbcc919fc	-0.024548523
23	0x3daf4faa	0.085601166
24	0x3d88b071	0.066742785
25	0xbe84ceae	-0.25938934
26	0x3cf7b054	0.030235447
27	0xbd09e6cd	-0.033667374
28	0x3d6a18a0	0.05715239
29	0x3c09c030	0.0084076375
30	0x3d7cdb58	0.06173262
31	0xbd8185a6	-0.063243195
32	0xbcc0d5a8	-0.02353938
33	0x3c7e1aa8	0.015509285
34	0x3cb9176c	0.022594176
35	0xbc3b7d3c	-0.011443432
36	0x3d373f14	0.04473789
37	0x3d868018	0.06567401
38	0x3b3edd60	0.002912365
39	0x3d4e90c8	0.050431043
40	0xbd84a4af	-0.064767234
41	0x3bf02540	0.0073286593
42	0xbd89221d	-0.0669596
43	0xbd2f18de	-0.042748325
44	0x3ce76f54	0.028251328
45	0xbd13b36e	-0.03605979
46	0x3d02e022	0.03195203
47	0xbd88ba98	-0.06676215
48	0xbd879666	-0.06620483
49	0xbcf8a558	-0.03035228
50	0xbd823e8f	-0.06359588
51	0xbd03a45d	-0.03213917
52	0xbddd2984	-0.10798934
53	0xbd367cf9	-0.044552777
54	0x3d51e3e2	0.051242717
55	0x3cad8e94	0.02118615
56	0x3dae4a35	0.085102476
57	0x3d91661f	0.07099556
58	0xbb96c789	-0.004601423
59	0x3d38447d	0.04498719
60	0xbcaa0a09	-0.020756738
61	0xbd395460	-0.045246482
62	0x3d7183a9	0.05896345
63	0xbddcfdf3	-0.107906245
64	0x3c234d45	0.009967153
65	0xbca327b2	-0.01991639
66	0xbd560ac2	-0.052256353
67	0x3d9bc601	0.076061256
68	0xbce02327	-0.027360512
69	0xbcb9bf94	-0.02267436
70	0x3cefc5f9	0.029269205
71	0x3d88d667	0.06681519
72	0x3be588e0	0.007004842
73	0x3c5199d5	0.012793024
74	0xbd70ed3c	-0.058819994
75	0xbcbea8a1	-0.023273768
76	0xbd562e76	-0.052290402
77	0x3d2c6c9e	0.042095773
78	0xbcef6ae4	-0.029225774
79	0xbd996b6e	-0.07491194
80	0x3d7a8592	0.06116254
81	0xbd37d075	-0.044876534
82	0xbda3090a	-0.079607084
83	0x3d0b77df	0.034049865
84	0x3cc9cceb	0.024633845
85	0x3d3a4533	0.04547615
86	0xbd15b761	-0.036551837
87	0xbd5cb907	-0.053887393
88	0xbd397792	-0.045280047
89	0xbd26a72f	-0.040686782
90	0xbdad3030	-0.08456457
91	0xbd6b8afc	-0.057505593
92	0x3cada2fd	0.021195883
93	0xbd22db27	-0.03975978
94	0x3c66b98f	0.014082327
95	0x3dabe62b	0.083935104
96	0xbd41cf09	-0.047316585
97	0x3d89169f	0.06693768
98	0xbb822095	-0.0039711692
99	0xbd41f19f	-0.04734957
100	0xbb2e495a	-0.0026594014
101	0xbc910f75	-0.017707566
102	0xbcfcc4aa	-0.030855495
103	0xbc88d86e	-0.016704764
104	0xbd2cba6a	-0.042169966
105	0xbbd3439b	-0.006447268
106	0x3c4ce985	0.012506847
107	0xbcb7fd54	-0.022459663
108	0xbd4dd07a	-0.050247647
109	0x3d84662d	0.06464801
110	0x3cc2c48b	0.02377536
111	0x3b9f118d	0.004854387
112	0xbd32b50c	-0.04362969
113	0x3d28ec07	0.04124072
114	0x3d09afc3	0.033614885
115	0x3d72f5d5	0.059316475
116	0xbc6150e7	-0.013752199
117	0xbd7f9e8c	-0.06240706
118	0x3dd5a0d1	0.10431064
119	0xbda760a9	-0.08172733
120	0xbb7b9886	-0.0038390472
121	0x3d79d52e	0.06099432
122	0xbd1b7f8b	-0.03796343
123	0x3d41ca95	0.047312338
124	0x3994d7c0	0.00028389506
125	0x3d3a49ce	0.045480542
126	0xbd474e37	-0.048658576
127	0xbda974de	-0.08274244
128	0x3d33993e	0.043847315
129	0x3d2c0e87	0.04200604
130	0xbc8d4781	-0.01724601
131	0x3d7e03f8	0.062015504
132	0x3d12be91	0.03582627
133	0x3cba9657	0.022776766
134	0xbd0e875e	-0.034797065
135	0xbd3297ad	-0.04360168
136	0x3d384033	0.0449831
137	0x3d566a7e	0.052347653
138	0xbcd3305a	-0.025779892
139	0xbafe5a56	-0.0019405584
140	0xbd087aaa	-0.033320107
141	0x3c79d514	0.015248556
142	0x3d9ff056	0.07809512
143	0xbcce990d	-0.025219465
144	0xbc516934	-0.01278143
145	0x3d1df432	0.03856296
146	0x3d58e4d0	0.052952588
147	0x3cf3365b	0.029689005
148	0x3d074e7b	0.03303383
149	0xbccf2738	-0.025287256
150	0xbd6f62bb	-0.058443766
151	0x3d4b7a3b	0.049677115
152	0xbd731e77	-0.059355225
153	0x3d095e5a	0.033537246
154	0x3d62f788	0.055411845
155	0xbc714a50	-0.01472719
156	0x3c7f7301	0.015591384
157	0x3cda1277	0.026620133
158	0x3c655f1b	0.013999726
159	0x3c85e3d0	0.016343981
160	0xbd243b5c	-0.040095672
161	0xbd83a0e7	-0.06427174
162	0x3d130613	0.035894465
163	0xbd3bf95d	-0.04589211
164	0x3d1c15a5	0.03810658
165	0xbd54c58b	-0.051946204
166	0x3d741c36	0.059597217
167	0x3ca2e5f4	0.01988504
168	0xbd576942	-0.052590616
169	0xbcc590b3	-0.02411685
170	0x3d6942b2	0.05694837
171	0x3d567c7b	0.052364808
172	0x3c19dd5f	0.009391158
173	0x3d6cc5d7	0.057805862
174	0x3d107e77	0.035276856
175	0xbd558178	-0.052125424
176	0xbc325b40	-0.0108860135
177	0x3c8c08a5	0.017093966
178	0x3d7b5910	0.061364233
179	0x3cb20ca8	0.02173455
180	0x3d378eb7	0.044813838
181	0xbda68ba1	-0.08132101
182	0xbd00c49b	-0.031437498
183	0x3c4be250	0.012444094
184	0xbd172ada	-0.0369061
185	0x3b0ace39	0.0021180047
186	0x3dcd4cc8	0.100244105
187	0x3d96f288	0.07370478
188	0xbd1a62d9	-0.037691925
189	0x3e25611a	0.16150323
190	0x3e89c478	0.26907706
191	0xbdf40d80	-0.119166374
192	0xbd6a34e6	-0.057179354
193	0xbdc0434b	-0.09387835
194	0x3c76cf3f	0.01506406
195	0x3d5bc206	0.053651832
196	0x3e2b5f12	0.16735485
197	0x3e0d507d	0.13800235
198	0xbe3fc561	-0.18727638
199	0xbdd3d24f	-0.103428476
200	0xbd8a726c	-0.067601055
201	0x3cdd900a	0.027046222
202	0x3e998655	0.299853
203	0x3d966e30	0.07345235
204	0x3b9cd4e6	0.0047861217
205	0xbd1ef298	-0.038805574
206	0x3d209e62	0.039213546
207	0xbde353d4	-0.11099973
208	0xbe48a9fb	-0.19596092
209	0xbde2fad3	-0.11082997
210	0xbe5b2219	-0.21399726
211	0xbd765cf4	-0.06014724
212	0xbd86c496	-0.065804645
213	0xbc3e8e7c	-0.011630651
214	0xbd8a91dd	-0.067661025
215	0xbc85dd18	-0.016340777
216	0x3d1f5f42	0.038909204
217	0xbc481388	-0.012211688
218	0xbd460e0e	-0.048353247
219	0x3d14ea52	0.036356278
220	0xbd912c38	-0.07088512
221	0x3bb92b50	0.005650915
222	0x3b05c5a0	0.0020411983
223	0x3d5a2420	0.053257108
224	0xbb80abd0	-0.0039267316
225	0xbd8a5437	-0.06754344
226	0x3ca34864	0.01993198
227	0x3d331c0a	0.043727912
228	0xbd3e349b	-0.046436887
229	0xbbde71e0	-0.0067884773
230	0x3cd18be0	0.025579393
231	0xbd8a9406	-0.067665145
232	0x3d9495b6	0.072551176
233	0xbd1bba14	-0.038019255
234	0x3cc07848	0.023494855
235	0xbd04964c	-0.032369897
236	0x3d65709c	0.056015596
237	0xbd476290	-0.04867798
238	0xbd84c122	-0.0648215
239	0x3c1bc698	0.009507798
240	0x3cf01f88	0.02931191
241	0x3da7e884	0.08198646
242	0xbb85f6a8	-0.0040882416
243	0x3ddcf0c0	0.10788107
244	0x3dc73ca6	0.09728365
245	0x3d0a8196	0.03381499
246	0x3d086f66	0.033309363
247	0xbc5d2b93	-0.013499158
248	0x3d28b44f	0.04118758
249	0x3d6bfea1	0.05761588
250	0xbd7eb6d3	-0.062186074
251	0x3d9d8fb5	0.076934256
252	0xbbe79755	-0.0070676007
253	0xbda3b4d6	-0.07993476
254	0x3d6c96c5	0.057760973
255	0xbd8d0d3e	-0.06887291

i2h.bias f4 [128]
0	0x3b52154f	0.0032056158
1	0xbc5d167a	-0.013494128
2	0xbb564195	-0.0032692899
3	0xbc28b610	-0.010297313
4	0xbca9159d	-0.020640189
5	0xbb57f0de	-0.0032949965
6	0x3cac07e6	0.02099986
7	0xbc37d743	-0.011220756
8	0x3c2f0c25	0.010684048
9	0xbd0ed3be	-0.0348699
10	0x3c33f721	0.010984213
11	0xbc975cc3	-0.01847685
12	0x3b3a804f	0.0028457826
13	0xbbb530c0	-0.005529493
14	0x3c7b8ac8	0.015352912
15	0x3befb26e	0.0073149716
16	0x3c9159d5	0.01774303
17	0x3c344996	0.011003872
18	0x3ceae078	0.028671488
19	0xbcbcbb52	-0.02303854
20	0x3b4480f9	0.00299841
21	0xbc1a4383	-0.00941551
22	0xbb85b2b5	-0.0040801414
23	0x3c257e51	0.010100917
24	0xbbea69a3	-0.007153706
25	0x3d0e62f7	0.03476235
26	0x3bac4d9e	0.005258276
27	0xbc9a2780	-0.018817663
28	0x3c301fae	0.0107497405
29	0x3d2b46fd	0.041815747
30	0x3c5fded4	0.013663966
31	0x3c1ea5a5	0.009683047
32	0x3c424c99	0.011859083
33	0x3c9540db	0.018219402
34	0xbc0fe2ea	-0.008782128
35	0x3b9297a6	0.0044736443
36	0x3c2a92f9	0.010411018
37	0x3bc36d1e	0.0059639355
38	0x3c62943b	0.013829286
39	0xbb2589be	-0.0025259103
40	0xbc2ed560	-0.01067099
41	0xbc7b96cd	-0.015355778
42	0x3c939069	0.018013196
43	0xbbbfba05	-0.0058510327
44	0xbba29783	-0.0049619093
45	0xbc45aa0c	-0.012064468
46	0x3ba7cb6e	0.0051206863
47	0x3a7bbd40	0.00096030906
48	0xbc86d10f	-0.016457109
49	0x3b7a2643	0.0038169778
50	0x3c971466	0.018442344
51	0xbaaca420	-0.0013171472
52	0x3d1da496	0.03848704
53	0xbd14739e	-0.036243074
54	0x3ce59bbf	0.028028367
55	0xbb3304c5	-0.0027316075
56	0x3c8d95fa	0.017283428
57	0x3c2f5c5e	0.010703174
58	0xbc90e132	-0.017685506
59	0xbcc4b39e	-0.02401143
60	0x3c346649	0.011010715
61	0xbcca6d34	-0.024710275
62	0x3bc70798	0.0060739033
63	0xbc7497ae	-0.014928741
64	0xbd0ea61e	-0.03482639
65	0xbc2c66e3	-0.010522577
66	0x3b993c56	0.004676382
67	0xba42860a	-0.0007420486
68	0x3c7b1fde	0.015327422
69	0x3cab33d4	0.020898737
70	0xba8fb374	-0.0010963515
71	0x3b220dea	0.0024727532
72	0xbb54eb81	-0.0032489004
73	0xbbf43a94	-0.007453272
74	0x3b053313	0.0020324632
75	0x3946a5fc	0.00018944585
76	0xbb9b4fb4	-0.004739726
77	0x3cc1a50d	0.023638273
78	0x3caf2b8b	0.021383068
79	0xbcdfa4c7	-0.027300252
80	0x3ca24d44	0.019812234
81	0xbc887716	-0.016658347
82	0xbcbaa7c7	-0.02278508
83	0x3b77ae08	0.003779294
84	0x3b627f68	0.0034560803
85	0x3c541946	0.012945479
86	0xbbaf9fa6	-0.0053596077
87	0x3cbd35c6	0.02309693
88	0xbb0ccf8c	-0.0021486012
89	0xbcbc4b49	-0.022985118
90	0x3c8d9c6a	0.017286498
91	0x3c4e9e05	0.012610917
92	0x3c4696e0	0.012120932
93	0xb9db8038	-0.00041866465
94	0x3cf5d728	0.030009821
95	0x3b0d265a	0.0021537752
96	0xbc068913	-0.008211392
97	0x3c8f2274	0.017472483
98	0x3c2200dc	0.0098879
99	0x3c85c5d0	0.016329676
100	0x3ce1f0b8	0.027580604
101	0x3b9ce7d6	0.004788379
102	0x3b4a74a2	0.0030892272
103	0x398e8f93	0.00027191322
104	0xbd27b1ba	-0.040940978
105	0xbce27909	-0.027645605
106	0x3b789255	0.0037929018
107	0xbc6f0f09	-0.014590987
108	0x3aa940ad	0.0012912952
109	0xbcffd37e	-0.031228777
110	0x3d148b89	0.036265884
111	0xbcbb0820	-0.022831023
112	0xbbb90b8c	-0.0056471284
113	0x3b9f73a8	0.004866082
114	0xbcae7047	-0.021293772
115	0xbc75c3f8	-0.015000336
116	0xbc24886a	-0.010042289
117	0x3c8d7f56	0.017272633
118	0xbccf1e94	-0.025283135
119	0xbc018708	-0.007905729
120	0xbc2fcb48	-0.010729618
121	0x3d11ed3c	0.035626635
122	0x3a33ce23	0.0006859025
123	0x3aceb402	0.0015770199
124	0x3ce2b7a8	0.027675465
125	0x3c3b6fb7	0.011440209
126	0x3b31f90d	0.0027156502
127	0xb8128264	-3.493055e-05

i2o.weight f4 [9, 185]
0	0x3de82c48	0.11336571
1	0x3dba875d	0.0910785
2	0xbd11285b	-0.035438877
3	0xbd249709	-0.0401831
4	0xbec38673	-0.38188514
5	0x3e135e68	0.14391482
6	0xbdbaf538	-0.09128803
7	0x3f003182	0.5007554
8	0xbd8a978f	-0.06767189
9	0x3c98ee7e	0.01866841
10	0x3ec934b3	0.3929802
11	0x3e69e86c	0.22842568
12	0x3ce7ba35	0.028287033
13	0xbed47cff	-0.41501614
14	0xbebf9ece	-0.37425846
15	0x3d5399a8	0.05166021
16	0x3cf5d86c	0.030010425
17	0xbdc1bab8	-0.09459442
18	0xbe960210	-0.2929845
19	0xbc91153b	-0.017710319
20	0xbe10ca82	-0.1413975
21	0xbcbf0598	-0.023318097
22	0x3dc71c2f	0.097221725
23	0x3c16328f	0.009167328
24	0x3f0cea56	0.5504507
25	0x3dd004c8	0.10157162
26	0x3d69b75c	0.05705963
27	0x3d5f77f8	0.05455777
28	0x3cca0d44	0.024664529
29	0x3c311108	0.010807283
30	0x3c1f4cb0	0.009722874
31	0x3d2419a6	0.040063523
32	0xbd01affd	-0.031661976
33	0xbcb2562a	-0.021769602
34	0xbd379458	-0.044819206
35	0x3d82ca0a	0.06386192
36	0x3d1a5102	0.03767491
37	0xbc4f4cac	-0.012652557
38	0xbbba80b0	-0.0056916103
39	0x3ce4ecf8	0.027945027
40	0x3d8534e8	0.06504232
41	0xbd302700	-0.043005943
42	0xbc66bc64	-0.014083002
43	0xbd3ea304	-0.046542183
44	0x3d1231e8	0.035692126
45	0xbc38c4ec	-0.011277419
46	0xbd2ea55a	-0.04263816
47	0x3cab3c38	0.020902738
48	0x3c3eca48	0.011644907
49	0xbab39080	-0.001369968
50	0xbc81b6be	-0.015834209
51	0x3d62f324	0.05540766
52	0xbd0fab49	-0.03507546
53	0xbd485396	-0.04890784
54	0x3cc8ee7c	0.02452778
55	0xbd003e07	-0.031309154
56	0x3e1849e5	0.14871939
57	0x3e287e92	0.16454533
58	0xbc40eee5	-0.011775707
59	0x3e116f7f	0.14202689
60	0xbdbe89e1	-0.09303642
61	0xbd387604	-0.045034423
62	0xbd386f64	-0.045028105
63	0xbc30b5e6	-0.0107855555
64	0x3dcdab02	0.10042383
65	0x3da6266d	0.08112798
66	0x3e3acb18	0.18241537
67	0x3e45a821	0.19302417
68	0xbd91d502	-0.07120706
69	0x3dd179f8	0.10228342
70	0xbe5735ce	-0.21016619
71	0xbcc05d4b	-0.023481986
72	0x3d264694	0.040594652
73	0xbe4e92c6	-0.20173177
74	0x3e03a6f2	0.12856653
75	0xbe67a862	-0.22622827
76	0xbcdae035	-0.026718238
77	0x3d3cf4ee	0.04613202
78	0xbdb18d6b	-0.086695515
79	0xbc32d150	-0.010914162
80	0xbbc8aad2	-0.006123879
81	0x3e25ad82	0.16179469
82	0xbe148c6e	-0.14506695
83	0x3c2842d0	0.010269836
84	0x3dcca237	0.099918775
85	0xbd392e75	-0.04521032
86	0x3c6444d0	0.013932422
87	0x3bf40780	0.007447183
88	0xbd5473fe	-0.05186843
89	0x3dc03aea	0.09386237
90	0xbe2fd4cb	-0.17171018
91	0xbe11b96a	-0.14230886
92	0x3d056303	0.032565128
93	0x3ded42dc	0.11585018
94	0x3dabc769	0.08387644
95	0x3db6cf35	0.0892624
96	0xbdf54759	-0.11976499
97	0xbd9b648c	-0.07587537
98	0xbd44e97b	-0.048074227
99	0xbdbad343	-0.09122326
100	0xbe07cc26	-0.1326147
101	0xbd037d3d	-0.03210186
102	0xbe095387	-0.1341077
103	0x3d8de868	0.069290936
104	0xbd8e5bcb	-0.06951102
105	0xbdc272f2	-0.0949458
106	0x3ddb56a5	0.107098855
107	0xbe19a9fa	-0.15006247
108	0xbd965f2c	-0.07342371
109	0x3bdb3c59	0.0066905436
110	0xbdc6c536	-0.09705584
111	0x3d18d88b	0.037315886
112	0x3e0876de	0.13326594
113	0x3beff856	0.007323305
114	0x3d9da801	0.0769806
115	0xbe107294	-0.14106208
116	0x3e61defb	0.22057717
117	0x3d59ae6e	0.053144865
118	0x3dea1a82	0.11430837
119	0xbddaaa3b	-0.10677
120	0xbe5a9c98	-0.21348798
121	0xbdd02b41	-0.101645
122	0x3da9e933	0.08296432
123	0x3d8166a8	0.06318408
124	0xbd8f9df0	-0.07012546
125	0x3e22437d	0.15846057
126	0x3e197183	0.14984708
127	0x3e1f66b0	0.15566516
128	0xbd9a677b	-0.075392686
129	0xbc58d8fa	-0.013235325
130	0xbccce35a	-0.025010753
131	0xbd5b2945	-0.053506155
132	0x3b8a7426	0.0042252718
133	0x3d857568	0.06516534
134	0xbb3a97e5	-0.0028471884
135	0xbdeaa90d	-0.11458025
136	0xbde76544	-0.11298612
137	0x3e5282de	0.20557734
138	0xbc981754	-0.018565811
139	0xbea5af22	-0.32360178
140	0x3d2e067a	0.042486645
141	0x3e11765f	0.14205311
142	0x3df80607	0.121105246
143	0xbe310095	-0.17285378
144	0xbd65dc48	-0.05611828
145	0xbd11ac07	-0.03556445
146	0x3d9cf062	0.07663037
147	0xbdfceefd	-0.12350271
148	0x3d42a708	0.047522575
149	0x3d93700b	0.07199105
150	0x3df2dbfc	0.11858365
151	0xbe5bf429	-0.21479858
152	0x3d49567e	0.04915475
153	0x3de1262b	0.10993608
154	0x3d7111d8	0.058854908
155	0xbdeafa0d	-0.11473475
156	0x3dc8b3ff	0.097999565
157	0xbda9a9b6	-0.08284323
158	0xbd0de753	-0.034644436
159	0xbd792f56	-0.06083616
160	0x3e4660bb	0.19372837
161	0xbe228054	-0.15869266
162	0x3b6554a7	0.0034993084
163	0x3e382b29	0.17985214
164	0xbcee3562	-0.02907819
165	0xbe342466	-0.1759201
166	0xbdd74db1	-0.10512865
167	0x3d9f45bf	0.07776975
168	0xbdcbc5fd	-0.09949873
169	0x3d32134c	0.043475434
170	0xbdd6f36e	-0.10495649
171	0xbd09e450	-0.033665
172	0xbd3997b5	-0.045310695
173	0x3bebda23	0.007197635
174	0x3de40f5c	0.11135742
175	0xbd5b77cd	-0.053581048
176	0xbca0bec4	-0.019622214
177	0xbd5abd55	-0.053403217
178	0x3e21c87d	0.15799136
179	0xbe3adf7b	-0.18249314
180	0xbdb6a5ac	-0.08918318
181	0xbe030bc9	-0.12797464
182	0xbd2362d0	-0.039889157
183	0xbe1aec97	-0.15129314
184	0x3d6b1dee	0.05740159
185	0xbee92bec	-0.45541322
186	0xbdcdab3d	-0.10042427
187	0xbe119806	-0.14218149
188	0xbe70ee73	-0.23528461
189	0xbeae0f4e	-0.33996052
190	0xbe088890	-0.13333344
191	0x3f93c051	1.1543065
192	0xbe877009	-0.26452664
193	0x3ebb5b91	0.36593297
194	0xbd0aa99d	-0.033853162
195	0xbe309715	-0.17245133
196	0xbeb08e76	-0.3448369
197	0xbe49bd7f	-0.19701193
198	0x3f24689b	0.64222115
199	0x3e756018	0.23962438
200	0xbdc4f459	-0.09616918
201	0xbc865c6a	-0.016401488
202	0xbed26166	-0.41089934
203	0xbed04e5a	-0.40684777
204	0xbe5fbc9c	-0.21849293
205	0x3f6d7855	0.9276174
206	0xbd600b6d	-0.054698396
207	0x3cfa9dbd	0.030592794
208	0xbe011be5	-0.12608297
209	0xbeb45904	-0.35224164
210	0xbe0ea594	-0.1393035
211	0x3d152c7c	0.036419377
212	0xbd37627d	-0.04477166
213	0xbd9649cf	-0.073382966
214	0xbaf82600	-0.0018932223
215	0xbd85f90b	-0.06541642
216	0x3ce926a8	0.028460816
217	0xbd39b0db	-0.04533468
218	0xbc6e8d64	-0.014560077
219	0xba52fa80	-0.00080481917
220	0xbb255680	-0.002522856
221	0xbbcff0a0	-0.0063458234
222	0x3cfe6778	0.031055197
223	0xbd6b3896	-0.05742701
224	0xbd8145f1	-0.063121684
225	0xbd6e306a	-0.05815164
226	0x3d3a4228	0.045473248
227	0x3d705e20	0.058683515
228	0xbd17502e	-0.0369417
229	0x3d958df8	0.07302469
230	0xbd8327e5	-0.06404094
231	0xbbd7d600	-0.00658679
232	0xbd1e60c3	-0.038666498
233	0xbd4e0212	-0.050294943
234	0x3d5c1bb4	0.053737357
235	0xbab1b480	-0.0013557822
236	0xbcb0a570	-0.021563262
237	0xbdc1de6c	-0.09466252
238	0x3d31f80a	0.04344944
239	0xbcb3f988	-0.021969572
240	0x3d86711e	0.06564544
241	0xbc61bccf	-0.013777926
242	0x3e3bcc60	0.18339682
243	0xbe9add05	-0.3024675
244	0xbea37db2	-0.31931835
245	0xbe5ac82a	-0.21365419
246	0x3e489c4d	0.19590874
247	0x3bedf7c9	0.0072622043
248	0x3e2cb99e	0.16867682
249	0xbcb76bb0	-0.022390217
250	0x3dd8068d	0.105481245
251	0xbdc1079e	-0.09425281
252	0xbd9bf5a8	-0.076152146
253	0xbd0230de	-0.031784885
254	0xbe2f395a	-0.17111722
255	0x3e803da8	0.2504704

i2o.bias f4 [9]
0	0x3ea4bed2	0.32176834
1	0xbee509d8	-0.44734073
2	0xbd80df1f	-0.06292557
3	0x3cefcda3	0.02927286
4	0xbe14a3c9	-0.14515604
5	0x3d899b09	0.06719024
6	0x3ec899d5	0.39179865
7	0x3cc93134	0.024559595
8	0xbe5ae0b9	-0.21374787
