Part2/Models/model_5.pt (torch, 334303 bytes, 4 tensors)

i2h.weight f4 [256, 313]
000000 41 2e ab 3c 62 88 f2 3c d9 a8 d1 bd d6 24 b2 bd
       0.020896079 0.029606048 -0.10237283 -0.08698432
000010 7b 0b 2d be 4e 04 af bd be 15 9e 3d 27 2d 5e bd
       -0.1689891 -0.08545743 0.07718991 -0.05424228
000020 a4 7f 81 3d a5 6a 42 bc 44 f7 ab 3d a4 b8 01 bd
       0.06323174 -0.011866246 0.083967716 -0.031670228
000030 6b 0d 08 3d 08 31 6b 3d f6 25 f0 3c f2 e2 b4 3c
       0.03321592 0.057419807 0.029314976 0.022080872
000040 1f 59 4b 3c 4f c8 3e bd b3 bd 15 bd 72 17 ba 3d
       0.012411385 -0.046577748 -0.036557864 0.09086503
000050 70 3d 2d bd c5 54 a3 3d ef 72 ec 3c ff 8e 0a 3d
       -0.04229492 0.07975153 0.028863398 0.033827778
000060 52 ae eb 3d bd e7 ca 3c 06 db 9b bc d2 3d 62 bd
       0.11507858 0.024768705 -0.019025337 -0.055234738
000070 b4 ea 40 bc 2d ff 24 3d 22 63 33 bd b8 02 c8 3b
       -0.011774708 0.040282417 -0.043795712 0.0061038397
000080 1c 47 6e 3c 16 b5 cb 3c a4 f8 62 3c 1e cc 93 bc
       0.014543321 0.024866622 0.013853226 -0.018041667
000090 bc 6b 70 bc 2b 1e 15 3d 86 2d ac 3c 1c 46 27 bd
       -0.014674123 0.036405724 0.021017801 -0.040838346
0000a0 9b 08 57 3d b5 a6 49 3d a2 71 ba 3c 5d 84 57 3d
       0.05249844 0.04923125 0.022759262 0.052616466
0000b0 e3 27 63 3d 15 70 18 3d f5 cc 50 3d d9 38 52 bd
       0.05545796 0.037216265 0.050976712 -0.051323745
0000c0 16 4a 30 bd fa 74 f0 3c 43 4b 3d 3d 98 96 5d bc
       -0.043039404 0.029352654 0.046214353 -0.013524674
0000d0 af cb 17 bd 78 37 67 bd 81 71 4f 3d 7e 65 c5 3c
       -0.037059482 -0.056449383 0.050645355 0.024096247
0000e0 89 16 ae 3c c7 06 a8 3c b3 82 05 3d 91 76 73 bc
       0.02125098 0.020511044 0.032595348 -0.014859811
0000f0 82 a2 16 bd 44 b1 af 3a 18 d1 a2 bb 93 7f 0d bd
       -0.036776073 0.001340427 -0.0049687736 -0.034545492
000100 0e 96 17 3b e4 d3 fd 3a ce 22 7c bc 64 80 05 3d
       0.002313021 0.0019365516 -0.015389157 0.032593146
000110 a7 4b 81 bc 86 a7 1b bd bc 9a d3 3c 15 ed 39 bd
       -0.015783144 -0.03800156 0.025830619 -0.045392115
000120 79 de dd bc 79 7a 9b 3c 9b 03 f6 3c f7 37 61 bb
       -0.027083622 0.018979298 0.030031016 -0.0034365633
000130 79 ec 85 3c bc 83 7b b8 75 ed a1 3c 17 cb 2a 3a
       0.01634811 -5.996575e-05 0.019766549 0.0006515248
000140 5a 17 49 bb 8e 7c 5a bd ee d2 32 3d 82 8c 21 3d
       -0.0030684085 -0.05334144 0.04365819 0.03944064
000150 25 14 9c bc b0 40 01 3d 49 9d b1 3a 53 6b 8c bd
       -0.019052574 0.03155583 0.0013550903 -0.06856408
000160 4b 0f f2 bb a2 31 ad bc 43 65 58 bd f2 4f 3f 3d
       -0.007387077 -0.02114183 -0.052830946 0.0467071
000170 77 b9 07 3d 03 91 26 3d da c2 ed bc 2c 7b ef bb
       0.033135857 0.040665638 -0.029023577 -0.0073083844
000180 25 78 71 bc 38 4f 1d 3d f4 d6 6d 3d 49 6e 96 bc
       -0.014738117 0.038405627 0.058066323 -0.018363135
000190 f0 a9 40 3d 31 0f c2 3c ad fd 30 3d 06 48 db bc
       0.047037065 0.023688884 0.043210674 -0.026767742
0001a0 e6 08 4b 3b ab 73 87 bd f9 a1 92 3d d8 2b 83 3d
       0.0030980646 -0.06613859 0.071598 0.06404847
0001b0 f8 39 05 bd 48 28 05 bc 95 36 2b 3d f3 fa ce 3b
       -0.032525986 -0.00812728 0.0418001 0.0063165366
0001c0 93 78 a0 3c 6f 91 0b 3c 8f 83 7e 3c 65 b2 c9 3b
       0.019588744 0.008518561 0.015534296 0.0061552995
0001d0 9f 08 e6 3c 17 63 69 3c 01 62 02 3c be fc cd bc
       0.028080283 0.014244816 0.007957936 -0.02514493
0001e0 42 bb f7 bc db 11 44 bc cd 94 fa bc a4 e6 26 bd
       -0.030240659 -0.011967148 -0.030588532 -0.0407473
0001f0 fb bf 8b 3b e5 e8 f4 3c d1 1b b0 3c 00 74 37 3d
       0.004264829 0.029896209 0.021497639 0.04478836
000200 d6 09 da 3c 4b 95 92 3c 90 54 c7 3b 8b 41 54 3d
       0.026616018 0.017893454 0.0060830787 0.05182032
000210 ba 1e 6c 3d 4c 86 95 b8 49 ba 8d 3c 30 d9 da bc
       0.05764649 -7.1298884e-05 0.017300742 -0.026714891
000220 b2 af 81 ba e2 52 d4 bb 2b d4 d7 3c 7e aa 94 3c
       -0.000989428 -0.006479607 0.026346287 0.018147703
000230 4d 9d 9d b9 de f8 50 3d 0b b9 43 bd f5 d5 03 bd
       -0.00030062572 0.05101859 -0.047783893 -0.032186467
000240 ce 59 e8 bc a3 4e 52 3d 40 88 22 bd b0 a0 d8 3c
       -0.028363135 0.051344525 -0.03968072 0.02644381
000250 01 b1 1c 3d 95 a8 2e bd 1c eb 52 3c 89 10 17 bd
       0.03825474 -0.04264124 0.012873437 -0.036881004
000260 d5 ac 57 bd 7b 10 3c 3c dd e8 15 3d 8e 94 60 ba
       -0.05265506 0.011478539 0.03659903 -0.0008567058
000270 43 99 37 3d 86 9e 8f bd 68 60 0a bd 6d 5b 35 3d
       0.044823896 -0.07012658 -0.033783346 0.044276644
000280 87 94 30 bc 88 8a ce 3b c7 42 f6 3a 20 a4 55 bd
       -0.010777599 0.0063031353 0.0018788212 -0.052158475
000290 08 47 66 bd 9e 25 b9 bc f1 d9 01 bd bd ba 0d bd
       -0.056220084 -0.022600945 -0.031701986 -0.034601916
0002a0 64 9c d9 bc d1 80 11 3d b8 ae 45 bb 46 63 51 3c
       -0.02656383 0.03552324 -0.0030163955 0.012780016
0002b0 a8 4f 84 bc c3 4c 75 bc d0 26 75 bd 2d 6c 43 bd
       -0.016151264 -0.014971915 -0.059851468 -0.047710586
0002c0 37 e4 e4 bc 8a 67 78 3c e7 f8 82 3b 98 52 37 3d
       -0.027940853 0.015161404 0.0039969566 0.044756502
0002d0 98 ad 58 3d a3 df f3 3c 91 38 4b 3c 1b 26 c0 3a
       0.052899927 0.029769724 0.012403623 0.0014659794
0002e0 98 7f 28 3d ba db ba bc 10 3b 8c bc fd 73 91 bc
       0.041137308 -0.022809852 -0.017118007 -0.017755503
0002f0 7e ff ff 3c c3 b4 fe 3b 69 01 3c 3d 7a fd e1 3c
       0.031249758 0.0077730133 0.045899782 0.027586687
000300 eb 8e a7 bb c8 c5 af 3c 47 ff 1e 3d f1 f4 52 bd
       -0.0051134727 0.021456614 0.03881767 -0.051503126
000310 a3 18 f7 bc 6d fc 65 bc 9d 51 f4 bc c6 6d 2e 3d
       -0.030163115 -0.014037234 -0.029824072 0.042585157
000320 a5 99 34 3d 65 df 2f 3d 7c bf 6c 3c b8 b6 3a 3d
       0.04409184 0.042937655 0.01444995 0.04558441
000330 2c 62 01 38 d1 8e bd 3b 8b 14 5f bd 3d ff ce bc
       3.0847426e-05 0.0057848473 -0.05446295 -0.025268191
000340 1c 70 9c ba 66 ef 33 bc 5d 2b 9c 3c d9 3b 2b bc
       -0.0011935267 -0.01098237 0.019063646 -0.0104512805
000350 c6 f6 fd bc c6 f6 22 bd 7f 23 9e bc 0e 2e 60 3b
       -0.03100146 -0.039786123 -0.019304035 0.0034207138
000360 78 ab 35 3c f1 20 89 bb 31 92 35 bc cb 39 78 3d
       0.011088245 -0.004184835 -0.011082218 0.06060199
000370 96 d5 e0 3c e5 ad 2a bc 8a 12 dd bc bf 3f 35 3d
       0.027445596 -0.010417436 -0.02698638 0.044250246
000380 73 17 0b bd e2 d0 36 3d a2 db 5a bd 9c 2e ad bc
       -0.03395791 0.0446328 -0.053432114 -0.02114039
000390 ae 8a 3e bd 6c 36 db 3c e1 04 bd bc fd ec e0 3c
       -0.046518974 0.026759349 -0.023073616 0.027456755
0003a0 ae fd 7b bd 0e 63 bc 3c ed 52 35 3d 9f 54 a7 ba
       -0.061521225 0.022996452 0.044268537 -0.0012766308
0003b0 aa b8 64 bd 0a 4a 9e bc 0e 5e 26 bd d6 f1 f2 bc
       -0.055840172 -0.019322414 -0.04061704 -0.029656332
0003c0 a6 a2 51 bd 71 43 68 bc 5b 70 22 bd bc 90 6b 3d
       -0.051180504 -0.0141762355 -0.03965793 0.057511076
0003d0 2c ef f0 bc 75 10 37 bd a8 d6 04 3d d1 14 65 bc
       -0.029410921 -0.04469343 0.032431275 -0.013982014
0003e0 f6 8d cf bc 88 6e cd bc fe 47 cc 3c 50 46 3b 3d
       -0.025336247 -0.02507712 0.024936672 0.045721352
0003f0 07 32 2f bd 25 94 05 3d 24 03 18 3d 60 41 c1 bc
       -0.04277232 0.032611985 0.03711237 -0.023590744

i2h.bias f4 [256]
000000 67 e5 58 3c 7d 42 df 3b 70 79 d8 bb 53 cb 93 3b
       0.0132382875 0.006813346 -0.0066062734 0.004510322
000010 69 7f a7 3c 78 6a b9 3c 45 9b 71 3b 4a ca af 3b
       0.020446496 0.022633776 0.003686623 0.005364691
000020 80 95 b3 ba 98 6f 03 3b 50 84 94 3c fe d2 88 bb
       -0.0013701171 0.0020055529 0.018129498 -0.004175543
000030 09 63 3e 3c 10 96 05 bc 81 a4 97 bc e6 18 48 3b
       0.0116202915 -0.0081534535 -0.018511059 0.0030532419
000040 83 39 1c bb 5a 60 47 bb 82 0a 0b ba ac 0a 5b 3c
       -0.002383799 -0.003042242 -0.0005303995 0.013369244
000050 e7 bc 88 3b 0b 73 c4 bb f1 ca 82 bc 77 86 57 bc
       0.0041729095 -0.0059951595 -0.01596591 -0.0131546175
000060 e7 44 14 3b 92 a3 b4 3b 0a 91 0c bc 36 20 69 3c
       0.0022624077 0.005512663 -0.008579502 0.014228871
000070 bc e8 04 bc 2b be 07 3b 07 09 e5 3b 4b 92 ab bc
       -0.008112129 0.0020712714 0.0069896015 -0.020943781
000080 b4 c6 45 3c 48 d1 5c bc fb b7 0f bc 6c f5 fd 3b
       0.0120713 -0.013477631 -0.008771892 0.007750204
000090 70 63 04 3b 7d c8 96 3b 8d 9b 95 bc 0d 74 ec bb
       0.002020087 0.004601537 -0.018262649 -0.007215983
0000a0 e2 e1 a8 bc 95 a1 a2 bb c8 12 97 3c 15 1b f4 3b
       -0.020615522 -0.0049631097 0.018441573 0.0074495175
0000b0 8b ec 43 3c fe 6a 18 3d 64 df ec bb f2 d5 4e bc
       0.011958252 0.03721141 -0.0072287787 -0.012624251
0000c0 7e 8a 78 3b 64 d5 13 3c 3a 68 cf bb f7 61 17 bc
       0.0037924345 0.009023044 -0.0063295634 -0.009239665
0000d0 e0 f3 d9 38 10 c0 a4 38 c2 07 4c bc df fb aa bb
       0.000103927916 7.855904e-05 -0.0124530215 -0.0052180137
0000e0 91 cc dd bb 95 73 91 3b 1b 4c 3d 3c 38 fe 61 bc
       -0.006768771 0.0044388273 0.0115537895 -0.013793521
0000f0 03 df 09 bc 50 81 25 3c 8b a9 97 bb de a2 90 bb
       -0.008414987 0.010101631 -0.0046283654 -0.0044139465
000100 8b 91 14 bc e0 33 9a bc bd 73 25 3c b8 e1 79 bc
       -0.009067903 -0.018823564 0.010098395 -0.015251569
000110 04 60 bf bb e4 41 da ba f3 d8 8a 3b b4 68 3a bb
       -0.0058403034 -0.0016651717 0.004237288 -0.0028443756
000120 1c c4 3f 3c a1 03 71 3b 65 c3 21 3c 7b 11 0d bc
       0.011704471 0.0036775845 0.009873246 -0.008610125
000130 1a 9a 80 3b 19 d5 3b 3b a3 ab c2 3c 81 8b ac 3c
       0.0039246203 0.0028660952 0.023763483 0.021062614
000140 3f 73 c8 3b 82 bd 98 b9 c0 52 15 bb 50 3d da ba
       0.006117254 -0.00029132894 -0.0022784919 -0.0016650353
000150 8c 1e 84 bb a8 6d 11 3c 88 d2 5d 3c 83 58 be 3c
       -0.004031962 0.008876242 0.013538964 0.023235565
000160 8c 03 30 3c 7e 00 9f 39 c6 11 02 bc 18 20 f7 b9
       0.010743033 0.0003032721 -0.007938808 -0.00047135423
000170 40 d7 63 bc a5 92 32 bc 1d 48 aa 3b e7 32 e6 3a
       -0.0139063 -0.010899221 0.005196585 0.0017562778
000180 0d 0b 5e 3c c6 45 b2 bb ad 54 d4 bb e9 72 20 bc
       0.013552439 -0.0054404465 -0.0064798207 -0.009793022
000190 51 fa 2d bc 74 02 3d 3c c6 38 26 bc 31 1e a9 3c
       -0.010618762 0.011536229 -0.010145372 0.02064428
0001a0 3d 5f 30 3c d8 93 6a bb 93 80 dc bc ea dc a9 ba
       0.010764894 -0.0035793688 -0.026916778 -0.0012959514
0001b0 0f 6e 8a bc 96 87 4c bb 0b cf f7 bb 9f 16 99 bc
       -0.016898183 -0.0031208745 -0.0075625232 -0.018687544
0001c0 cb fb 96 bc e4 cf d9 3b c5 c1 b0 3a e0 9d cf 3c
       -0.018430611 0.006647097 0.0013485482 0.025343835
0001d0 b8 2c 7f bb d2 71 df bb c0 14 c3 b8 b1 02 40 3c
       -0.0038936567 -0.0068189884 -9.3021896e-05 0.011719392
0001e0 66 a0 23 3c 8e d0 9d ba ed 64 e5 3b 24 ed 42 bb
       0.009986972 -0.0012040304 0.0070005567 -0.0029743398
0001f0 ae 9e 21 bc 14 e3 f1 bb 74 c0 5c bc 7e 6a 26 3b
       -0.009864492 -0.007381806 -0.013473619 0.0025393064
000200 94 0e 9d 3c 49 56 10 3c 7f 2e b6 bb 04 1e 65 bc
       0.01917199 0.0088096345 -0.005559742 -0.013984207
000210 83 ed 93 bb e2 19 d6 bb e4 2a 03 ba bc f1 f1 bb
       -0.0045143976 -0.006533847 -0.00050036446 -0.0073835533
000220 b8 8a 5c 3c 06 21 34 3c a2 cf ca 3c f6 30 b3 3a
       0.0134608075 0.0109942015 0.02475721 0.0013671208
000230 5d 5a 59 bb bd 9e 46 bb b5 88 2d 3c e8 d9 55 bc
       -0.0033165433 -0.0030307018 0.0105916755 -0.013052441
000240 38 ef ef 3b 88 86 e5 bb 00 a7 86 3c f6 ea ac bc
       0.0073222183 -0.0070045628 0.016437054 -0.021108132
000250 a4 8b 6b 3c b6 f3 fa bc aa 6f 58 3c 30 e3 b6 3b
       0.014376555 -0.030633789 0.013210217 0.005581282
000260 3e cb 26 bc a6 7d 5a bc 7d 97 25 3c e2 c4 9a 3b
       -0.010180293 -0.013335621 0.010106918 0.0047231773
000270 01 be 22 3c d9 df e5 3b 3a 91 81 bc b7 34 a4 3b
       0.009932996 0.00701521 -0.01581632 0.005011167
000280 87 f3 76 bb 95 28 9c bc 69 31 94 bc fd 79 b4 3b
       -0.0037681775 -0.01906232 -0.018089967 0.005507706
000290 f4 d7 51 bc 32 1a 76 bc a9 59 dd 3b a0 be 01 3b
       -0.012807835 -0.015020894 0.006755073 0.001979746
0002a0 52 f8 ba bc 5d 55 b8 3c 36 18 8e 3c d0 2d 03 bc
       -0.022823486 0.022501642 0.017345529 -0.008006528
0002b0 64 84 82 3c b1 f1 f1 3b b6 d5 2b ba c4 be 4d 3c
       0.01593227 0.007383548 -0.0006554978 0.012557689
0002c0 e5 ac 8e bc 0c 81 ab 3b d5 53 cc 3c a4 db 65 3a
       -0.017416427 0.0052338894 0.024942318 0.0008768386
0002d0 e8 77 9d 3b 64 5f 3a ba da 2e fb ba 1a e0 7f 3c
       0.0048055537 -0.0007109551 -0.0019163743 0.015617395
0002e0 32 b9 be 3c a9 52 74 bc 22 cc 87 3b ac 49 4d bc
       0.023281667 -0.014912286 0.0041442076 -0.012529772
0002f0 8a d8 34 3c 76 11 9f 3c 06 4a af bc 4b 46 1c 3c
       0.011037955 0.019417506 -0.021397602 0.0095382435
000300 6e ef a4 3b 27 38 88 3c 00 01 4a b9 30 21 1f bb
       0.005033425 0.016628338 -0.00019264594 -0.0024281256
000310 55 9b 05 bc dc 9a 95 3c 8c 1c 5f 3b 7d 79 89 3b
       -0.00815471 0.01826232 0.0034044115 0.0041953907
000320 1f be d9 3a af 7e b3 bb b2 52 a9 3b ae 39 81 3c
       0.0016612447 -0.0054777483 0.0051673288 0.015774574
000330 7a f0 77 bc 15 25 e0 3b a9 56 18 3c cc 26 8c bc
       -0.015133018 0.006840358 0.009298005 -0.017108344
000340 b2 ed a2 bc ed d5 2c bb 2c 67 97 3c 56 86 c9 3b
       -0.019888733 -0.0026372627 0.018481813 0.0061500473
000350 ec 95 73 bc d3 17 23 3c 0b b9 91 3c a7 13 5d ba
       -0.014867287 0.009954411 0.01778843 -0.00084334094
000360 f6 f2 2a bb 15 ae 95 bc 5c 9a c8 bb 11 73 29 bc
       -0.0026084757 -0.018271485 -0.0061219167 -0.010342375
000370 2a 97 11 3c 48 8b 8f 39 0d 79 88 bc a7 65 ef 3b
       0.008886138 0.00027378858 -0.016659284 0.007305819
000380 4e df 74 39 36 80 a6 3a 00 57 2f 3b b6 93 a2 bc
       0.00023352841 0.0012703005 0.0026754737 -0.019845825
000390 18 8c f8 39 d3 ee 35 3c 95 a0 12 bc 9c 90 6f 3a
       0.00047406624 0.011104303 -0.008949419 0.0009138675
0003a0 48 1f 2b 3c 3e 55 7f bb a0 f1 ba bb 06 f0 4e bb
       0.01044447 -0.003896072 -0.0057050735 -0.003157617
0003b0 40 6d 51 3c fb 46 68 3b 0c 13 4a bc 04 cc 7c bb
       0.012782395 0.0035442698 -0.012333643 -0.0038573751
0003c0 69 a7 ca bc 46 10 08 3c df b5 a3 3c b4 8f 9f ba
       -0.02473803 0.008304661 0.019984184 -0.0012173564
0003d0 34 db 1d 3b 77 a5 e3 bb 01 a8 91 bc ae 79 b6 b9
       0.0024086954 -0.006947215 -0.017780306 -0.00034804404
0003e0 07 27 86 3c 44 8b 88 3c 08 d7 86 3b 04 75 37 3c
       0.016376032 0.01666797 0.004114989 0.011197332
0003f0 f0 07 82 3b fc d7 f8 bb d6 4a c4 bc 1c 55 11 3d
       0.0039682314 -0.0075941067 -0.023961466 0.035481557

i2o.weight f4 [9, 313]
000000 cd 5f 03 3e f4 c6 b8 3d 48 47 f5 bd cc 8c 36 bd
       0.12829514 0.09022322 -0.119764864 -0.044567868
000010 71 da d6 be ae 12 46 3e e1 f8 dd bd 2b 56 0f 3f
       -0.41963533 0.19343063 -0.108384855 0.55990857
000020 1f e9 85 bd 43 fe 81 3d 80 fc c8 3e 0a db 68 3e
       -0.06538605 0.06347325 0.39255142 0.22739807
000030 d3 00 2c bc 5e d9 08 bf 44 26 dd be 61 77 30 bd
       -0.010498243 -0.53456676 -0.43193257 -0.0430826
000040 71 10 9e 3d 5a 10 2e be 8e aa a5 be b8 aa 7f bd
       0.0771798 -0.16998425 -0.32356685 -0.06241867
000050 65 63 22 be 8f 98 ad 3c 8c 65 00 3e ed f4 25 bd
       -0.15858229 0.02119091 0.12538737 -0.040516783
000060 ce 46 16 3f a4 0a 04 3e ab 8b 40 3d ba 8b f5 3c
       0.5870179 0.12894684 0.047008198 0.029973853
000070 28 5d a5 bb dc 69 73 3c 0e fb 85 bc f0 40 0a bd
       -0.0050465055 0.014856782 -0.016355064 -0.033753335
000080 2e db d6 3c 7a c7 86 bc 66 72 f4 3c 57 f5 63 3d
       0.02622756 -0.01645254 0.029839706 0.055653896
000090 26 5f 44 bd 8f 1a 49 3d d5 ed 3d 3d 4c 82 5a bd
       -0.047942303 0.049097594 0.046369392 -0.053346917
0000a0 1c 2b 0c bd 00 63 7e bc a0 8f 5c bb 5c 44 09 3c
       -0.0342208 -0.015526533 -0.0033654943 0.008378115
0000b0 94 01 26 3c 94 1c 2e bc 64 c2 44 3c 9a 2b 31 bd
       0.010132212 -0.010626931 0.012009237 -0.043254472
0000c0 9e 0e e4 3c c0 3b 89 3a 64 36 57 3c b8 ca b7 bc
       0.027839001 0.0010470077 0.013135526 -0.022435531
0000d0 b5 33 c3 3c e0 fc 17 3b 80 7c 6b 3b 46 74 e4 3c
       0.023828367 0.0023191497 0.0035932362 0.027887475
0000e0 40 6e 86 3e 90 45 2b 3e 6a 39 32 3e d1 4d 88 bc
       0.2625599 0.16725755 0.17404714 -0.016638668
0000f0 21 0b 3a bd fc 2b 13 3d 1d eb 9f 3d 72 d5 de bc
       -0.04542077 0.03593062 0.07808516 -0.027201388
000100 59 90 d1 3d 03 ed 0f 3b 17 00 9e 3d 6c e1 c0 bd
       0.1023261 0.0021961338 0.07714861 -0.09417996
000110 4c 04 a2 3d 01 aa 08 be 28 a6 27 bd c2 f3 92 bd
       0.07910976 -0.13346101 -0.040929943 -0.07175399
000120 56 e8 d7 bd 0a 5b 5c 3d 4a 2c 3f 3d d8 70 f7 3a
       -0.105423614 0.05379776 0.046673097 0.0018878235
000130 0a 6a 19 3d fc de 34 3e 73 c9 84 bd 4c 4d 61 3b
       0.037454642 0.17663187 -0.06483736 0.0034378348
000140 79 68 b0 bc b8 50 ab bc 73 b7 7a 3d 77 93 cb bc
       -0.021534191 -0.020912513 0.061210107 -0.02485059
000150 40 6e b8 bd f5 8a 27 3d ac d1 f3 3c 77 27 50 bd
       -0.090054035 0.040904004 0.029763065 -0.050818887
000160 6e bc 3c 3e 0a e2 0d be 11 78 62 bd 5e 52 8a bc
       0.18431255 -0.13855758 -0.055290285 -0.016884979
000170 a9 e5 99 3d a3 89 c1 bc e7 19 5f 3d 6c c6 97 3d
       0.07514507 -0.0236252 0.05446806 0.07410893
000180 68 e0 d7 bd 0d 46 29 be 8b f5 8b 3c 80 e5 80 bd
       -0.10540849 -0.16530629 0.017084857 -0.06293774
000190 79 a4 bf 3b 45 f5 03 3c 6d 2e da 3b bf e4 56 bd
       0.005848464 0.008054082 0.0066583664 -0.052464243
0001a0 5a 1e 8e 3d e4 f1 0d be 16 91 68 3d 7b 5e e9 bd
       0.06939383 -0.13861805 0.05677899 -0.11394974
0001b0 4a d0 e5 bc 70 05 81 3b bb bd bb bb e8 ed cd bc
       -0.028053422 0.003937416 -0.0057294047 -0.025137857
0001c0 72 5a 8d bd 43 ee 1b 3e 4a e4 5e 3d ce 7b 99 3d
       -0.06902017 0.15227608 0.054416932 0.07494317
0001d0 ef 28 9e bd 03 42 d8 bd 23 f9 01 3d 9c 01 8e bd
       -0.07722651 -0.10559466 0.031731736 -0.06933901
0001e0 7c 06 66 3c ee 23 01 3e d9 10 17 be 0d 16 03 3d
       0.014039632 0.12611362 -0.1475252 0.03200345
0001f0 2a d9 4d bd 2a 0b 5f bd 37 4d 90 3d 90 d1 c9 3c
       -0.050255932 -0.054454006 0.070459776 0.02463606
000200 49 ad e8 3d 4a ac 57 3d 6d 74 58 bd b2 28 9e 3d
       0.113611765 0.052654542 -0.052845407 0.07722606
000210 b9 c9 21 3e 85 48 f9 bc 27 b2 b1 3d f7 a9 09 3e
       0.15799607 -0.030430088 0.08676558 0.13443743
000220 1d 05 3a bd 40 e6 bf 3d 35 97 ab bd 8a fb 14 bd
       -0.045415033 0.093700886 -0.0837845 -0.0363727
000230 5f e3 8c 3d 79 fc 09 be 35 22 9d bc 99 e3 cc bd
       0.06879305 -0.13475217 -0.01918135 -0.10004348
000240 86 1c f0 3d b5 c2 d1 bd bf b9 51 bd 2e d9 6a 3e
       0.117241904 -0.102422155 -0.051202532 0.2293441
000250 9c 15 8f 3d 18 c9 fa bc 4b 3c a6 bd 77 df ba bc
       0.069865435 -0.030613467 -0.08116969 -0.022811634
000260 d3 49 dc 3d be 44 8d bd 10 3b 3c bd 8e 04 18 bd
       0.10756268 -0.06897877 -0.045954764 -0.03711372
000270 55 5d a5 3d a2 05 27 3d 7e 45 b0 bc d0 ea e4 3d
       0.08074442 0.040776856 -0.021517511 0.111775994
000280 9c a5 82 bd ec 96 97 bd f0 a4 89 bd 90 e2 8c bd
       -0.06379244 -0.07401833 -0.067209125 -0.06879151
000290 79 cd f5 bd 80 4b a1 bd fa 66 2d 3e 0a 14 0b 3e
       -0.120020814 -0.078757286 0.16933814 0.13581863
0002a0 d7 26 08 be c7 05 85 bd a6 02 d4 bc 2f a0 d1 3c
       -0.13296066 -0.064952426 -0.02588017 0.025589077
0002b0 3b e1 28 be b0 17 1e bd 33 7b fe 3d d8 d3 0e 3c
       -0.16492169 -0.03859681 0.12425842 0.0087175
0002c0 0d c7 80 3d cd 5b f4 bc e6 d1 09 3d f3 aa f8 3b
       0.06287966 -0.02982893 0.03364744 0.007588738
0002d0 22 08 79 be 87 88 d6 3d 47 4e 23 3d 78 23 31 be
       -0.24319509 0.10475259 0.039869573 -0.17298687
0002e0 5a 8d 83 3d 7f 9f 44 ba 35 83 4f 3d a9 a8 2b 3d
       0.06423445 -0.00075005734 0.05066224 0.041908894
0002f0 7d cb 56 3d 9e bd 60 3d 67 cc 36 3c 64 f7 8b bd
       0.052440155 0.054868333 0.011157132 -0.068342954
000300 06 fa 72 3c 2e 48 2c bd 32 48 18 be dd 4d a0 bd
       0.014830118 -0.042061023 -0.1487129 -0.07827351
000310 54 e3 02 3e 73 e4 f1 3c 95 05 47 3d 36 80 34 3d
       0.12782031 0.029527878 0.048589308 0.044067584
000320 6b 0f 07 bd f8 a3 9d bd bf f4 aa bd 42 2b 09 be
       -0.032973688 -0.0769729 -0.08347463 -0.13395408
000330 9c cf ef 3d a6 8d 43 3d 2b 96 f3 3d bf 75 63 bd
       0.1170952 0.04774251 0.11893877 -0.055532213
000340 18 63 90 bd f0 39 7e bd ac 8c d5 bd d5 d7 f0 3d
       -0.07050151 -0.062066972 -0.10427222 0.11759917
000350 1d 0a e3 bd b8 1c 85 3c ee b0 b7 bc 8b 43 ac 3d
       -0.11085913 0.016249046 -0.022423234 0.0841132
000360 21 0a 16 be c1 63 81 3d a1 99 ca bb b8 c4 13 3c
       -0.14652301 0.06317855 -0.006182865 0.009019069
000370 c3 e5 dc 3d df 38 51 3d 80 0a 43 be 74 d9 cd bc
       0.10786011 0.051079627 -0.19046974 -0.025128104
000380 fe 73 7e 3d 16 71 14 3d 85 cd 73 3b f3 6f e0 3d
       0.062122338 0.03624066 0.0037201357 0.109588526
000390 41 fb c7 bc 61 5f 23 3e cc e7 61 bd 14 7e 20 be
       -0.0244118 0.15954353 -0.0551527 -0.15673095
0003a0 1b 7b 1f bd 6a a1 c7 3d bb e6 54 39 a1 d4 b9 3d
       -0.038935762 0.09747584 0.0002030385 0.09073759
0003b0 39 74 71 3d 80 ba 40 3d e7 66 62 bd 11 d5 e5 3d
       0.05894873 0.04705286 -0.055273917 0.1122228
0003c0 cf dc c6 bd bf da 5f 39 a2 ee 8b bd 48 73 27 3e
       -0.09710085 0.00021348427 -0.06832625 0.1635257
0003d0 6c 9e 82 bd 3a 01 ce bd 49 a1 8f bc fe 32 42 bc
       -0.06377873 -0.10058828 -0.017532961 -0.011852978
0003e0 cf e3 a4 bd ea 05 5f 3c 44 a0 4e bb d6 1b 02 bd
       -0.080512635 0.01361225 -0.0031528631 -0.031764828
0003f0 11 d1 f4 3c 91 e8 87 3c a8 82 08 be 2c 4c 53 3d
       0.029884847 0.016590388 -0.13331091 0.051586315

i2o.bias f4 [9]
000000 1d df df 3e 8d 3e f0 be e7 89 05 bc 7d dd 2a bc
       0.4372491 -0.46922722 -0.008150554 -0.0104287835
000010 5c 22 04 be 51 39 d1 3d 00 d3 dc 3e 63 e1 44 3c
       -0.12903732 0.1021601 0.4312973 0.012016627
000020 19 9c 06 be
       -0.13145484
