Part2/Models/model_1.pt (torch, 103391 bytes, 4 tensors)

i2h.weight f4 [128, 185]
-0.049360886 -0.03547145 0.06540754 0.029254645 -0.048763108 0.028936313 -0.13712077 0.053354256
0.14513323 0.025482083 0.10971017 -0.12221772 -0.012354835 -0.019835887 -0.058808822 0.0153264385
-0.001614287 0.028234258 -0.03656777 -0.07092815 -0.07182615 -0.0002615555 0.032983433 1.138651e-05
0.076722264 0.048201293 0.0060148537 -0.058462724 -0.038887817 -0.067204826 -0.040669523 0.009800851
-0.052223787 -0.038601723 0.020074613 -0.061595626 -0.05561818 0.018480249 -0.052814804 -0.02926284
-0.06918267 0.049157307 0.0062521845 0.070661515 0.06805201 -0.008685589 0.028115094 0.06369822
0.043254733 -0.025729928 0.029651672 0.072439194 0.010791573 0.04982588 -0.039714042 0.029506095
0.08727974 -0.0281773 -0.067398876 0.010099233 0.05276952 -0.07007072 -0.048077676 0.10455556
0.008264609 0.056218933 0.028611774 -0.033413358 -0.028244304 -0.082189895 0.09080339 -0.018047754
0.038898397 0.05783328 -0.013302561 -0.06451466 -0.02173477 0.028673032 -0.048832178 -0.06468733
0.09776131 0.04007055 0.022793185 -0.050480124 0.034699596 -0.006764484 0.003507827 -0.00466454
-0.07733808 -0.042044383 0.092694774 0.02874167 0.08808044 -0.03862462 0.02141285 -0.008612633
0.073967196 -0.056529447 -0.031118218 0.006137817 -0.055519864 -0.05380511 0.035704143 0.05264949
0.025989275 -0.036002357 0.05134213 -0.03475854 -0.02627535 -0.053318422 0.019585425 -0.039125286
0.04883702 0.057138633 -0.049289025 -0.07687537 0.008415067 0.021006854 -0.04164955 0.028924879
0.038697198 0.059315525 -0.014100317 -0.057700284 -0.010215023 0.024260852 -0.047004756 0.016136356
-0.009699814 -0.0017475504 -0.04209444 0.023832344 -0.07756622 0.049834512 -0.009435978 -0.010031846
-0.010319844 0.046840407 -0.07650946 -0.020460078 -0.033021707 0.03554774 0.012930114 0.10900703
-0.0041525243 0.022508673 -0.06027425 -0.05815021 0.040443785 0.060474735 0.03351821 0.043505356
0.03148092 0.062137365 -0.023043985 -0.036089677 0.05673166 0.04084439 0.010192476 -0.035452157
-0.06739489 -0.05903342 -0.10665109 -0.043639608 0.06249939 0.02456037 -0.049000632 -0.041510064
-0.019082185 0.04108874 0.036465425 0.036791183 -0.07090329 -0.0687464 0.031653024 -0.042268917
-0.11133991 0.014433267 -0.016095167 -0.061449304 -0.0137813315 -0.0032368924 0.008651723 -0.037905585
-0.00814687 -0.03775424 0.027949365 0.17993854 0.15190455 0.039722625 -0.3747763 -0.017165247
-0.095305584 -0.18838546 0.02843279 -0.16475509 0.13511619 0.040827285 0.011937264 -0.007253014
-0.110830694 0.048136592 0.13728337 0.033599608 -0.013171053 0.10299562 0.03183146 0.04242649
-0.05635487 -0.1409665 0.21412523 -0.035568416 -0.06376596 0.022066385 0.046353705 -0.049589984
0.0141608715 -0.05506833 -0.05224929 0.055304393 0.010542586 0.014303632 0.04257817 -0.030056871
-0.04315809 0.011506394 -0.006337084 -0.008339271 0.0036804527 -0.061505426 0.020713024 0.032536246
0.02188588 -0.013608776 0.060457274 -0.008166477 -0.058786407 0.06758287 -0.010543513 -0.0649702
0.04287435 0.0220459 -0.08275995 -0.019892646 0.037579488 -0.015724437 0.087951794 -0.03681917
-0.034459207 0.08122084 -0.016350882 -0.048259564 0.017591402 -0.06227155 -0.007793301 0.009177237
00000000: a42e 4abd 834a 11bd 63f4 853d 70a7 ef3c
00000010: d3bb 47bd d90b ed3c 6369 0cbe fe89 5a3d
00000020: ce9d 143e cdbf d03c baaf e03d 494d fabd
00000030: ef6b 4abc df7e a2bc 85e1 70bd be1b 7b3c
00000040: 7c96 d3ba 884b e73c 16c8 15bd c742 91bd
00000050: 9719 93bd 6321 89b9 a319 073d b008 3f37
00000060: 9020 9d3d b86e 453d 4018 c53b 9c76 6fbd
00000070: d548 1fbd afa2 89bd 1695 26bd c093 203c
00000080: 9ce8 55bd d71c 1ebd 8473 a43c b24b 7cbd
00000090: e4cf 63bd e463 973c 5654 58bd a0b8 efbc
000000a0: a5af 8dbd 2c59 493d 20df cc3b fcb6 903d
000000b0: da5e 8b3d 004e 0ebc a051 e63c 3674 823d
000000c0: e02b 313d 92c7 d2bc 10e8 f23c 005b 943d
000000d0: 23cf 303c 3916 4c3d 31ab 22bd c4b6 f13c
000000e0: b8bf b23d 15d4 e6bc 6c08 8abd 4177 253c
000000f0: da24 583d 3d81 8fbd 19ed 44bd 3a21 d63d
00000100: 4868 073c d345 663d 3d63 ea3c 72dc 08bd
00000110: 9960 e7bc 2d53 a8bd 21f7 b93d e2d8 93bc
00000120: ed53 1f3d 97e2 6c3d fcf2 59bc 4320 84bd
00000130: 1e0d b2bc b5e3 ea3c 4004 48bd ca7a 84bd
00000140: 1537 c83d 0421 243d c6b8 ba3c 3fc4 4ebd
00000150: 2a21 0e3d 9ba8 ddbb 92e3 653b ffd8 98bb
00000160: 6d63 9ebd bb36 2cbd c2d6 bd3d a773 eb3c
00000170: 8563 b43d d934 1ebd 006a af3c 001c 0dbc
00000180: 1d7c 973d 6c8b 67bd a2eb febc be1f c93b
00000190: cc68 63bd bf62 5cbd 823e 123d fea6 573d
000001a0: 76e7 d43c 3577 13bd 204c 523d f95e 0ebd
000001b0: 673f d7bc 6b64 5abd 9d71 a03c d641 20bd
000001c0: 5409 483d 330a 6a3d 4ae3 49bd d670 9dbd
000001d0: 59df 093c 9116 ac3c b898 2abd def3 ec3c
000001e0: f480 1e3d d6f4 723d 0405 67bc 2257 6cbd
000001f0: e95c 27bc b2be c63c 0f88 40bd 6430 843c
00000200: f8eb 1ebc 100e e5ba 386b 2cbd 0c3c c33c
00000210: 0adb 9ebd 461f 4c3d 5c99 1abc 9d5c 24bc
00000220: 9014 29bc badb 3f3d feb0 9cbd e59b a7bc
00000230: c541 07bd 829a 113d d4d8 533c 143f df3d
00000240: e611 88bb 1c64 b83c 22e2 76bd ea2e 6ebd
00000250: 62a8 253d 5bb4 773d 644a 093d ac32 323d
00000260: 23f2 003d c083 7e3d bdc6 bcbc c5d2 13bd
00000270: 755f 683d 724c 273d 58fe 263c 4836 11bd
00000280: 5506 8abd 07cd 71bd e36b dabd 72bf 32bd
00000290: 5cff 7f3d d432 c93c e3b4 48bd 7506 2abd
000002a0: 3e52 9cbc ab4c 283d c55c 153d 5ab2 163d
000002b0: be35 91bd eaca 8cbd 9aa6 013d 2c22 2dbd
000002c0: 2e06 e4bd 8279 6c3c 03da 83bc 44b2 7bbd
000002d0: 18cb 61bc 0b22 54bb f5bf 0d3c e342 1bbd
000002e0: 737a 05bc 31a4 1abd 11f6 e43c cf41 383e
000002f0: de8c 1b3e 31b4 223d aee2 bfbe 229e 8cbc
00000300: 932f c3bd 1ee8 40be e2eb e83c 8fb5 28be
00000310: e65b 0a3e 833a 273d 8494 433c b1aa edbb
00000320: 34fb e2bd e02a 453d 0394 0c3e be9f 093d
00000330: 66cb 57bc 5eef d23d b461 023d 66c7 2d3d
00000340: 5dd4 66bd 8659 10be a543 5b3e 30b0 11bd
00000350: ba97 82bd 90c4 b43c 62dd 3d3d de1e 4bbd
00000360: 0003 683c 548f 61bd 5a03 56bd dc86 623d
00000370: d0ba 2c3c c859 6a3c 7266 2e3d d439 f6bc
00000380: 8ac6 30bd 5085 3c3c 50a7 cfbb 70a1 08bc
00000390: c033 713b 1ded 7bbd 5cae a93c ba44 053d
000003a0: 044a b33c 58f7 5ebc 0ca2 773d b0cc 05bc
000003b0: 04ca 70bd e368 8a3d b3be 2cbc 190f 85bd
000003c0: 049d 2f3d 9a99 b43c 0c7e a9bd e7f5 a2bc
000003d0: f3ec 193d 89d0 80bc 1220 b43d b3cf 16bd
000003e0: 1925 0dbd 1d57 a63d 49f2 85bc d2ab 45bd
000003f0: d81b 903c 7410 7fbd f25e ffbb 1f5c 163c

i2h.bias f4 [128]
-0.010757321 0.016805539 -0.004032462 0.015282378 -0.009183055 -0.0021320542 -0.002613128 0.013723143
0.0137105705 0.013353558 0.01628056 -0.015388342 0.0076362006 0.039219867 -0.022405375 -0.032315426
-0.008522896 0.01829914 0.0028919145 0.008773336 -0.025379138 0.0063320566 0.0074821296 -0.025914628
-0.009818062 -0.005039401 -0.024779644 0.0009490015 -0.009104945 0.0416712 -0.028663317 0.012729737
-0.012582367 0.0052707857 0.0015565649 -0.00029342147 0.004737537 -0.015902648 0.022185342 -0.021678166
-0.009822058 -0.005759888 0.015725212 -0.011336954 0.012951876 0.0042833053 -0.006892873 -0.00036927505
0.0024374686 -0.0020832848 -0.020524945 -0.010437559 0.022964459 -0.014793185 -0.022889027 0.044340037
-0.0035269083 -0.018034143 0.00149624 0.024159545 -0.020745413 0.0004961422 0.0043261144 0.011637281
0.023451392 0.0073487554 0.011944615 -0.00044388056 0.057450864 0.0013955572 0.029141005 -0.0051487926
-0.024182307 -0.019864844 -0.008811413 0.008012112 -0.012655439 0.010607314 0.006958813 -0.0102878725
-0.004768101 -0.022049015 -0.0182402 0.008194673 0.0031618262 -0.034218214 -0.005076155 -0.004246176
-0.022248665 -0.005367491 0.012241558 -0.013039825 -0.025302477 0.0022541315 -0.026675219 -0.012486081
-0.017992295 -0.017912569 -0.008205577 -0.0130561385 0.0040490516 -0.01808877 0.01565164 -0.00027951962
-0.018265365 -0.019011071 0.005206279 0.01397806 -0.02705624 0.004424065 -0.0054432927 -0.032198343
0.010753984 0.0032998372 0.016942868 0.010275121 -0.028296152 -0.013320921 -0.0031100453 0.017568076
0.025719645 0.0008173104 -0.004712816 0.0041703405 -0.012047371 0.0120416675 -0.0025293883 -0.042955395
00000000: 793f 30bc c5ab 893c be22 84bb f062 7a3c
00000010: 8674 16bc efb9 0bbb 0341 2bbb 09d7 603c
00000020: 4da2 603c e2c8 5a3c cf5e 853c 621f 7cbc
00000030: 1839 fa3b 03a5 203d 7a8b b7bc 2e5d 04bd
00000040: 9ea3 0bbc 14e8 953c 4686 3d3b 0abe 0f3c
00000050: e9e7 cfbc 247d cf3b a72c f53b ea4a d4bc
00000060: f0db 20bc 8f21 a5bb aefe cabc 6ac6 783a
00000070: e82c 15bc 6caf 2a3d 55cf eabc 6390 503c
00000080: 4626 4ebc 8eb6 ac3b a705 cc3a 5dd6 99b9
00000090: 573d 9b3b 4546 82bc 09be b53c 6996 b1bc
000000a0: b2ec 20bc 71bd bcbb 29d2 803c a2be 39bc
000000b0: 1b34 543c f85a 8c3b 9cdd e1bb 429b c1b9
000000c0: f0bd 1f3b b887 08bb ee23 a8bc 4c02 2bbc
000000d0: f61f bc3c 1d5f 72bc c581 bbbc e69d 353d
000000e0: b423 67bb 57bc 93bc 7c1d c43a 3dea c53c
000000f0: 49f2 a9bc 8a0f 023a 14c2 8d3b 4baa 3e3c
00000100: 221d c03c d4cd f03b 59b3 433c a4b8 e8b9
00000110: 9951 6b3d 21eb b63a 1eb9 ee3c 34b7 a8bb
00000120: f919 c6bc 99bb a2bc bf5d 10bc 3c45 033c
00000130: c258 4fbc 4dca 2d3c c106 e43b 778e 28bc
00000140: bb3d 9cbb 23a0 b4bc 796c 95bc f342 063c
00000150: a436 4f3b 6628 0cbd e055 a6bb 8223 8bbb
00000160: d542 b6bc c7e1 afbb d190 483c fda4 55bc
00000170: 2447 cfbc 0dba 133b fd85 dabc 6b92 4cbc
00000180: 9464 93bc 61bd 92bc af70 06bc 6ae9 55bc
00000190: e8ad 843b e62e 94bc de37 803c 7d8c 92b9
000001a0: 3fa1 95bc 1bbd 9bbc 6f99 aa3b 3c04 653c
000001b0: 0ca5 ddbc bff7 903b a65d b2bb 69e2 03bd
000001c0: 7a31 303c 1542 583b c5cb 8a3c fb58 283c
000001d0: 55cd e7bc fe3f 5abc e7d1 4bbb edea 8f3c
000001e0: 01b2 d23c c640 563a f76d 9abb 5aa7 883b
000001f0: 5662 45bc 6a4a 453c 18c4 25bb fff1 2fbd

i2o.weight f4 [9, 185]
0.14409208 0.06234891 -0.08159288 -0.11023147 -0.39163992 0.18121387 -0.1413121 0.53765106
-0.082994185 0.05608344 0.3764426 0.2966925 -0.032835875 -0.47479165 -0.41752085 0.07020402
0.03353874 -0.1342288 -0.34465462 -0.124198146 -0.22279753 0.07818806 0.15759467 -0.051838778
0.728976 0.11887757 -0.054946493 -0.043736964 0.0056078583 0.0510512 0.005212672 -0.048893858
0.012976527 0.00402236 0.02613657 -0.025330342 0.06998359 -0.04398834 0.005132325 0.030787438
-0.0035798699 -0.013921998 -0.055420887 0.022836454 0.019713111 -0.058941107 -0.06932969 -0.027852353
0.027864419 0.00768815 -0.07307732 0.02655483 -0.076579966 0.012978733 -0.059779372 -0.046013817
0.210055 -0.04286212 -0.06678271 0.050729647 0.040799964 -3.089414e-05 0.23827611 -0.07385019
0.032763172 0.013127749 -0.026422711 0.09048128 0.03417148 -0.07894617 -0.01987353 0.10410305
-0.012158243 0.11958807 -0.14412235 0.26003617 -0.18720071 -0.10837522 -0.17575724 0.15841559
0.035912476 -0.08502227 -0.093986586 -0.019125953 -0.25012437 0.123944536 -0.079313956 -0.02433302
0.09957531 -0.02586037 -0.11967845 -0.011627236 -0.0084732715 0.020673523 0.04112816 -0.13193156
0.1979329 -0.11274681 0.084044516 -0.22729596 0.07399897 0.038499597 8.228228e-06 0.0017279256
-0.2177202 0.06224845 0.14501594 0.08313088 -0.028676337 0.018718274 -0.16160965 -0.015367336
-0.13491032 0.20263475 -0.24300832 -0.0506482 0.103060685 0.025152445 -0.12740277 -0.15501513
0.07550643 0.035384007 0.08298959 0.10638757 0.14059293 -0.00839703 -0.02457685 0.012756585
-0.031181645 -0.047366958 0.16493687 0.16169976 -0.038252797 -0.105946004 -0.15708123 -0.018160764
0.11726704 0.22127499 0.09445317 -0.10335619 0.08314946 -0.0015067911 0.10330796 -0.13246481
0.0350942 -0.019686112 -0.19326393 0.14186306 0.12137629 0.065291315 0.089320295 0.21591787
0.14619093 0.06836612 0.011217279 0.13851617 0.033338808 0.13252458 -0.02307297 -0.024945436
0.1645509 0.077875115 0.013461772 -0.008669651 -0.29572356 0.21692567 0.14099137 0.17302398
-0.011967134 0.012541247 -0.14567585 0.06264904 0.0068365 0.04473929 0.053637467 -0.07254291
-0.08702169 -0.057764005 0.04683572 -0.022173805 0.11942536 0.09570392 0.04159861 -0.057569545
0.18846 -0.42819116 -0.080385275 -0.07500935 -0.23581317 -0.2885045 -0.079843484 1.3481561
-0.3321062 0.42403537 -0.09375807 -0.29282612 -0.399441 -0.11815334 0.74207914 0.36951113
-0.04071304 0.03968381 -0.56496674 -0.520377 -0.31422716 1.1269653 -0.024558058 0.004789271
-0.0341711 -0.31844676 -0.09459627 -0.048716962 -0.017833788 -0.03615632 -0.05388218 0.022351213
-0.05337616 -0.05969915 -0.009439252 -0.065913945 -0.05756487 0.054936707 -0.016313896 -0.020841535
-0.049685463 -0.020786759 -0.025460526 -0.00808797 0.071997225 -0.014219001 -0.020918276 0.048116
-0.050425373 -0.06493591 0.02206482 0.06700593 0.0235418 0.0059027 -0.05447757 -0.07157931
-0.02885015 -0.044197705 0.0422144 -0.024748448 -0.03600077 0.100966655 0.19650815 -0.16056547
-0.09002532 -0.040713828 0.15722153 -0.29934683 0.06946153 -0.16146474 0.1554449 0.049631596
00000000: e08c 133e 9261 7f3d 2b1a a7bd 09c1 e1bd
00000010: 0785 c8be 2190 393e 1fb4 10be 80a3 093f
00000020: dbf8 a9bd c0b7 653d 16bd c03e 14e8 973e
00000030: e97e 06bd e417 f3be 4bc5 d5be 20c7 8f3d
00000040: eb5f 093d 4673 09be 9276 b0be 995b febd
00000050: 0925 64be 1021 a03d 7f60 213e e654 54bd
00000060: 2c9e 3a3f 1576 f33d 930f 61bd 8825 33bd
00000070: 20c2 b73b 101b 513d 10cf aa3b ed44 48bd
00000080: 809b 543c 00ce 833b 5c1c d63c 9481 cfbc
00000090: 8e53 8f3d 1e2d 34bd 102d a83b f035 fc3c
000000a0: 409c 6abb 1819 64bc 0301 63bd 8413 bb3c
000000b0: 647d a13c 3b6c 71bd b9fc 8dbd 9e2a e4bc
000000c0: ec43 e43c e0ec fb3b 90a9 95bd 8489 d93c
000000d0: f5d5 9cbd c0a4 543c 37db 74bd fc78 3cbd
000000e0: a818 573e 3190 2fbd 60c5 88bd e4c9 4f3d
000000f0: dd1d 273d 5594 01b8 a7fe 733e c53e 97bd
00000100: ad32 063d c515 573c 7174 d8bc 404e b93d
00000110: 65f7 0b3d 88ae a1bd d0cd a2bc fb33 d53d
00000120: 5e33 47bc 97ea f43d cf94 13be 7623 853e
00000130: 8bb1 3fbe d4f3 ddbd b5f9 33be b237 223e
00000140: f618 133d 2820 aebd 0a7c c0bd 08ae 9cbc
00000150: 4d10 80be a2d6 fd3d 5b6f a2bd 0b56 c7bc
00000160: 24ee cb3d 20d9 d3bc fa19 f5bd 2a80 3ebc
00000170: 7ad3 0abc 855b a93c 0076 283d 1119 07be
00000180: ecae 4a3e cde7 e6bd 881f ac3d 46c0 68be
00000190: c68c 973d c1b1 1d3d f80b 0a37 907b e23a
000001a0: 0bf2 5ebe 3bf8 7e3d 0f7f 143e 8640 aa3d
000001b0: a3ea eabc 1157 993c 007d 25be 47c7 7bbc
000001c0: ee25 0abe 7c7f 4f3e 2cd7 78be 7d74 4fbd
000001d0: 7b11 d33d 800c ce3c df75 02be 49bc 1ebe
000001e0: 1da3 9a3d d2ee 103d 72f6 a93d bae1 d93d
000001f0: 98f7 0f3e b293 09bc 6455 c9bc ff00 513c
00000200: a670 ffbc db03 42bd 36e5 283e 9f94 253e
00000210: f7ae 1cbd 38fa d8bd e7d9 20be e2c5 94bc
00000220: b429 f03d e995 623e aa70 c13d 69ac d3bd
00000230: 444a aa3d 857f c5ba 2093 d33d dba4 07be
00000240: f0be 0f3d c544 a1bc fbe6 45be 8d44 113e
00000250: 2294 f83d 74b7 853d 8fed b63d 9319 5d3e
00000260: 13b3 153e 8903 8c3d aec8 373c 2fd7 0d3e
00000270: 468e 083d 86b4 073e 8603 bdbc 5f5a ccbc
00000280: 0880 283e fd7c 9f3d c48e 5c3c 270b 0ebc
00000290: 1469 97be c321 5e3e 0b60 103e 332d 313e
000002a0: cc11 44bc cd79 4d3c 0d2c 15be 244e 803d
000002b0: b804 e03b 8c40 373d f6b2 5b3d 6191 94bd
000002c0: 6e38 b2bd f399 6cbd d0d6 3f3d d7a5 b5bc
000002d0: 4895 f43d 6b00 c43d 4e63 2a3d 0bce 6bbd
000002e0: a9fb 403e df3b dbbe 09a1 a4bd 819e 99bd
000002f0: 0279 71be ddb6 93be fb84 a3bd 6190 ac3f
00000300: d309 aabe 2a1b d93e 3b04 c0bd 4eed 95be
00000310: 8883 ccbe 61fa f1bd e6f8 3d3f 9030 bd3e
00000320: b7c2 26bd 7e8b 223d a9a1 10bf 6d37 05bf
00000330: 62e2 a0be 6640 903f fb2d c9bc 51ef 9c3b
00000340: fff6 0bbd 740b a3be b0bb c1bd 708b 47bd
00000350: 2a18 92bc a618 14bd 90b3 5cbd e419 b73c
00000360: f6a0 5abd 1987 74bd 18a7 1abc e4fd 86bd
00000370: 24c9 6bbd 5005 613d b8a4 85bc debb aabc
00000380: fc82 4bbd fe48 aabc 9892 d0bc 6883 04bc
00000390: 4873 933d d0f6 68bc ce5c abbc 4815 453d
000003a0: d68a 4ebd 1efd 84bd 48c1 b43c 683a 893d
000003b0: bcda c03c 706b c13b df23 5fbd 2c98 92bd
000003c0: 2657 ecbc a708 35bd 02e9 2c3d 42bd cabc
000003d0: 8b75 13bd 9bc7 ce3d 6f39 493e 466b 24be
000003e0: 325f b8bd 8bc3 26bd aefe 203e fd43 99be
000003f0: d941 8e3d 0357 25be f32c 1f3e 804a 4b3d

i2o.bias f4 [9]
0.36603236 -0.5484692 -0.009593482 -0.049995117 -0.1544306 0.04444154 0.4073545 0.059539076
-0.18629625
00000000: 9868 bb3e 7a68 0cbf fb2d 1dbc aec7 4cbd
00000010: 0e23 1ebe 5508 363d c590 d03e 3fdf 733d
00000020: 72c4 3ebe
