Part2/Models/model_3.pt (torch, 103391 bytes, 4 tensors)

i2h.weight f4 [128, 185]
00000000: c739 67bd 3e5c 8ebd 45bd 353d 8555 0abe
00000010: 6813 aa3d 6d3b 393d 169b acbd 05d6 e0bc
00000020: 2b83 c13d 86d6 753d f4c6 293d 7763 843d
00000030: 5c9d be3b bffe c33d 49a1 a83d 313d 40bd
00000040: a27d 6a3d b17e 96bd 5529 9b3c 4549 cebc
00000050: da2d 073e 3c34 d03d ab93 c0bd db5b debc
00000060: cec0 833d 173c c4bc ccd1 3a3d 781e 443d
00000070: af0f 07bd 3024 9f3c 604f ebbb ecaa 943d
00000080: f07d 5abd 1cf1 083d 58f5 043d 8058 353a
00000090: 4cd0 e43c a006 40bc d043 063d c8f5 823c
000000a0: 4476 d43c a4ce f93c eaeb 5abd a82e 293d
000000b0: 948c 823c 9c05 c33c 04b5 3c3d 3a15 bbbc
000000c0: 2042 3abd 5885 e5bc 3609 933d 2479 82bd
000000d0: ff6e eabd f694 e6bb 1016 d5bc cae7 473d
000000e0: c123 6ebd 91e4 20bd 3670 953c ceba 49bd
000000f0: 7649 65bd d065 e93c 83fe 68bc 55d6 a53b
00000100: 640c 0cbd 2b58 913d d74e 613c 5906 8fbd
00000110: 907b 743d 93d0 0ebd 6b35 393d 985c a3bd
00000120: b3c7 8fbd ba03 13bd 3e1a 46bd 294d c0bc
00000130: 6978 4f3b 349f 8abd 9c5c b2bc 309d a5bc
00000140: 7de9 b03c 5ee2 32bc 5156 e2bc a4e3 4c3d
00000150: 0409 223d 4f77 b33c bf8d ae3d f30c a4bd
00000160: 5c6b c2bb 4294 c83d ef1d 2c3d 5e8d 5fbc
00000170: 9c7b e9ba b853 b93b 0e7d 703a f5ef c13a
00000180: 9365 54bd c728 983c 9f8e 00bd d58c bbbd
00000190: 5f1c 9cbd 4d15 a83d e5d3 a0bc 1c44 b4bb
000001a0: 9eb8 42bd 61bc dbbc f974 a7bc 16e5 1d3c
000001b0: f618 0f3d 14f2 0d3d b8c4 dabc 8526 61bd
000001c0: 0799 4f3c f70b 003c 9edc 8d3c 463f 5bbc
000001d0: 9e81 35bd 24ef 173d d241 34bd 3298 c33c
000001e0: fcbe ecbb 0cd6 59bd c362 3f3d e3d5 b03c
000001f0: acb4 833b 3233 72bd bb60 953d 44b6 2dbd
00000200: d1ca 8f3d 39b2 24bd 452c a0bd cdd9 813d
00000210: efa6 6cbb fbe2 49bc bedd eb3c 4996 603d
00000220: d63c 5d3d c75f 76bd 6075 aa3d 6c84 0f3d
00000230: 7e95 aabd 81ab 163c d518 db3c f984 923d
00000240: 150d d3bc c298 e1bc 6b3d 4ebd 5de1 b8bd
00000250: 9665 193d 672a 8dbd 1579 47bd a158 f0bc
00000260: db02 71bd 4023 c6bc f36b 06ba 4876 90bd
00000270: 34a9 f43b bbec 193c 8521 2c3d 2ae2 21bc
00000280: 7304 a63d 7383 14bc 47de 403d 0320 193d
00000290: 9229 853d 1cd1 0bbd b514 863d 8ff2 d93c
000002a0: 342b 75bb b5e0 1dbd 0d54 d2bc bdde 76bd
000002b0: e4fb 0e3d 0257 a93d f879 dcbc fcc0 81bd
000002c0: 090f 783d 6719 813d af45 4d3d e0de 7abc
000002d0: d18e 803d c27c 45bd 1c29 8a3d 583b 42bd
000002e0: 7389 25bd 8d58 0dbb 90a1 323d 9b01 a0bd
000002f0: 3920 273d 8418 77bd 0dbd 00be 12e2 df38
00000300: e72d ef3d dd6e f0bd 4eb8 5bbc f460 95bd
00000310: 2539 8ebd 62cd 40bd 7040 e6bd fa41 233d
00000320: 8335 073c dcbf c63d 9afa 00be cc38 89bd
00000330: a5d0 81bc dbc7 d13d 7f43 80bd fe77 ca3d
00000340: 2579 a73d 838b bebc b6b0 c13d 4ad2 903d
00000350: b058 5b3d f991 61bd 6430 bb3c 8894 323d
00000360: 8021 55ba cedb aebc 880f 733d 7494 40bd
00000370: 28a7 143c fe13 173d 7602 083d 266e 183d
00000380: 065e 41bd 181c 7c3d 3d3e 2abd 60ce 7bbc
00000390: b845 5c3d 685d 1cbd ad49 71bd b440 2fbd
000003a0: bca8 58bc c091 2cbb 2847 5c3d c4f2 603d
000003b0: 2d70 63bd e51e 2f3d 5163 483c c78e 19bd
000003c0: 88b6 743d dd4a 573c e49e 8a3c 678b f83c
000003d0: 554b e23c 5ca1 6fbd 6174 1ebd f4d1 3dbd
000003e0: d3a0 b3bc 33d0 2f3d 10d9 773d 2c07 783d
000003f0: f3de 4f3d f4cf 873d 0c7c 103d 4779 c23d
-0.056451585 -0.069511876 0.044369955 -0.13509186 0.08304483 0.04522269 -0.08428018 -0.027445802
0.094488464 0.06001904 0.041449502 0.06464284 0.0058170985 0.09570073 0.08233888 -0.046933357
0.05724872 -0.07348383 0.018940607 -0.025181422 0.13201085 0.10166213 -0.094031654 -0.02714341
0.06433259 -0.023954434 0.045610234 0.04788062 -0.03297394 0.019426435 -0.007181093 0.07259163
-0.05334276 0.033433065 0.03246054 0.00069177896 0.027931355 -0.0117203295 0.032779515 0.015986338
0.0259353 0.030494042 -0.05344764 0.04130426 0.015936173 0.023806386 0.046071067 -0.02283727
-0.045473218 -0.028017685 0.07179491 -0.06370762 -0.11446952 -0.0070368005 -0.026011497 0.048805036
-0.058139566 -0.039280478 0.018241983 -0.049250416 -0.05597826 0.02849093 -0.014220837 0.0050609508
-0.034191504 0.07096895 0.013751707 -0.069836326 0.05968815 -0.03486688 0.04521696 -0.07976645
-0.070205115 -0.035892226 -0.04836487 -0.023474293 0.0031657463 -0.06768647 -0.021772675 -0.020216554
0.02159571 -0.010918228 -0.02762905 0.050021783 0.03955938 0.021907477 0.0852313 -0.08010282
-0.0059332084 0.09793903 0.042020734 -0.013644544 -0.0017813328 0.005655732 0.0009173908 0.0014796244
-0.05185468 0.018574132 -0.031386014 -0.09157721 -0.07622599 0.08207188 -0.01963229 -0.0055012833
-0.047539346 -0.026823224 -0.02044152 0.009637138 0.034935914 0.03465469 -0.026705131 -0.054968376
0.012670762 0.007815353 0.017317113 -0.013381785 -0.044313066 0.037093297 -0.044008084 0.023876283
-0.0072249155 -0.053182647 0.046725046 0.021586364 0.0040193405 -0.059130855 0.072938405 -0.04241015
0.07021106 -0.04020903 -0.07820944 0.0634037 -0.0036110242 -0.012322183 0.028792258 0.054830823
0.054013096 -0.060149934 0.08323169 0.035038397 -0.083292946 0.009196163 0.02674524 0.07154269
-0.025763074 -0.02753866 -0.05035154 -0.0902736 0.037450396 -0.06892853 -0.048699457 -0.029339137
-0.058840614 -0.02418673 -0.000512778 -0.0705381 0.0074664596 0.00939482 0.042024154 -0.009880582
0.08106317 -0.009064543 0.04708698 0.037384044 0.065020695 -0.03413497 0.06546918 0.026604919
-0.0037409784 -0.038544375 -0.025674844 -0.060271014 0.03490819 0.082685485 -0.026913628 -0.06335637
0.060561214 0.06303673 0.050115284 -0.015311927 0.0627724 -0.04821468 0.06746122 -0.047419876
-0.040414285 -0.0021567673 0.04361111 -0.07812806 0.040802214 -0.060326114 -0.12572117 0.000106755775
0.11678677 -0.117398955 -0.013410641 -0.07293883 -0.06944493 -0.04707087 -0.11242759 0.039857842
0.008252504 0.09704563 -0.12595597 -0.06700286 -0.01584656 0.102431975 -0.06262874 0.09886168
0.08177403 -0.023259884 0.09457533 0.070713595 0.053551376 -0.05507085 0.022850223 0.04359868
-0.0008130297 -0.021345045 0.059340984 -0.047016576 0.009073056 0.0368843 0.033205472 0.03721442
-0.04720881 0.06155023 -0.04156326 -0.015369028 0.053777426 -0.038175017 -0.058908153 -0.042786315
-0.013223823 -0.002633199 0.053778797 0.05491902 -0.0555269 0.042754073 0.01223071 -0.03748968
0.059744388 0.013140407 0.016921468 0.03033991 0.027623812 -0.058503494 -0.038685206 -0.046342805
-0.021927273 0.042923164 0.06050974 0.060553715 0.05074973 0.06631461 0.03527455 0.09495788

i2h.bias f4 [128]
00000000: d95a 98bb d885 80bb 8be7 a13b 78fb 39bc
00000010: 4a2f aa3c e7e7 313c 5ba0 763c f4b4 803c
00000020: 4ed0 27bc dfd2 5b3c f716 4b3a d338 8b3c
00000030: 4dd5 86bc 7b72 0f3c 87b6 99bb 4b7a f13c
00000040: 16f6 34bd 13c7 943a 6536 cabc 5d10 643c
00000050: 1a09 973c 1a7d 7abc a7e3 d7bc d42f 4d3c
00000060: 3be7 fc3b 9948 17bb 1473 0c3d a4c6 733b
00000070: 091c 363c e195 a7bc 1aad e8bc a932 f7bb
00000080: bd16 483c 3bd8 f8bc 33ab 1b3d 460e d43b
00000090: 4be6 99bc 2c7d 37bc a0e5 65bc 8bb2 073d
000000a0: 719d 1c3c f71f ad3c 4be3 053d 980d 513c
000000b0: dc7a 49ba 145c ae3c ff67 0c3d 154a e7bc
000000c0: 4456 84bd a892 60bc 3712 a73c ac73 ae3c
000000d0: 848c 2c3c c7fe bcbc e2b2 95bb 734a c4bb
000000e0: 6a48 c63c 93e6 6cbc c95a 29bc 1e2d 56bc
000000f0: fca7 1d3c 2dd0 803c d5dd 423b ca48 60bb
00000100: ed11 6abd f85c a53c 0456 66bc bd3c 483c
00000110: 75c3 1f3c 6702 e53c f853 75bc 8dad ab3c
00000120: 687a 37bc 604e 5dbc 9122 a03c 7b1e 54bd
00000130: 22fb b3bc 5b6c e93c 3670 e8bb bc49 163c
00000140: e866 183b 1a78 84bc 1484 29bb bbd3 343c
00000150: 649e fa3c ad3d 8abc 2fe6 3b3d fbfa 773c
00000160: 1c84 d93b e2c2 13bc 3a19 05bd 6424 a4bb
00000170: 3cc8 b83b 2393 783c 456a 1a3c 6074 03bd
00000180: 3b1a 9f3c c30d a13c c4b3 db3a 6083 7e3b
00000190: 4235 413b 6f71 d9bc fb07 ff3b 6745 82bc
000001a0: a19c 3d3d 2127 3cbc d000 c9bc 8e39 a93b
000001b0: 7223 1bbb c4f2 60bc 3217 163d c0cd c53c
000001c0: 23ca 243c 3489 9f3b 1dcd c13c 2d1e b6bc
000001d0: 971f dd3c d161 fabc e88b 873b 26ae eb3b
000001e0: 4b3a d23c 6fae c23b b723 ba3a b351 30bc
000001f0: 6e36 ea3b c8d6 a6bc 0bc8 81bc 4afa 28bc
-0.0046495018 -0.0039222054 0.004940932 -0.011351459 0.020774502 0.0108585125 0.01505288 0.015711285
-0.010242535 0.013416975 0.00077472575 0.01699487 -0.016459132 0.008755322 -0.0046909484 0.02947726
-0.04418 0.0011350833 -0.02468414 0.013919917 0.018436957 -0.015288616 -0.02635367 0.01252361
0.0077179945 -0.0023084043 0.034289435 0.0037197256 0.011115083 -0.02045721 -0.028402854 -0.007543881
0.0122124525 -0.030376544 0.038005065 0.006471428 -0.01878657 -0.011199277 -0.014031798 0.033129256
0.009559021 0.021133406 0.032687467 0.012759589 -0.0007685849 0.02128414 0.034278866 -0.028233567
-0.06461766 -0.013706841 0.020394428 0.021295391 0.010531548 -0.023070706 -0.0045684436 -0.0059903204
0.024204452 -0.01445927 -0.010336586 -0.01307228 0.00962257 0.015724266 0.0029734273 -0.0034223073
-0.057146 0.020185933 -0.014058594 0.012221512 0.00975119 0.027955247 -0.014973633 0.020956779
-0.0111986175 -0.013507456 0.019547733 -0.05178688 -0.021970335 0.02849405 -0.0070934547 0.009172853
0.0023254696 -0.01617055 -0.0025866078 0.011036809 0.030593105 -0.016875112 0.045873817 0.015135522
0.006638063 -0.009018632 -0.03249476 -0.005009221 0.005639104 0.015171799 0.009424751 -0.032093406
0.019421687 0.019659882 0.0016761948 0.003883563 0.0029481207 -0.026543347 0.007782934 -0.015902234
0.04629195 -0.011483938 -0.02453652 0.0051643318 -0.002367225 -0.013729755 0.036643215 0.02414596
0.010057959 0.004868651 0.023657376 -0.022231186 0.026992602 -0.03056422 0.004136551 0.007192391
0.025662562 0.0059412043 0.0014201318 -0.010761666 0.007147602 -0.020366088 -0.015842458 -0.01031358

i2o.weight f4 [9, 185]
00000000: 2da0 7b3d 7869 a93b eb98 febc 00b9 74bc
00000010: 0b5d afbe 305e 3d3c 82ab 1dbe a04c c73e
00000020: 2d50 e0bd 03d1 973d 694e 653e 5a48 3c3e
00000030: e801 cf3d e5c9 89be e6a8 6bbe abf9 dabc
00000040: 1db2 143d 26b6 a1bd 69cd 5cbe e907 a63b
00000050: 815a 1abe a5b0 333d 0cd9 743d d440 cf3c
00000060: ce9d c63e e45f 2c3d acd7 39bc 5c87 423d
00000070: 3aa5 353d 5c41 873d 18b3 fe3c 1f4b 93bd
00000080: e0f8 8d3b 34e7 a93c 20c1 5c3c 1489 5a3d
00000090: dc49 e0bc e875 813d 0c99 b83c 4ccb fabc
000000a0: 4044 c0bb 0640 4f3d 1fec 77bd 0007 4b3c
000000b0: 989d 81bc 801f 28bb b68b a8bc 88c9 e63c
000000c0: dcc5 66bd 7453 f43c 7898 793d 58d2 85bd
000000d0: 0af3 7c3d 0ad2 303d 74a6 543d 8364 88bd
000000e0: f754 b63d 254b 92bd 41bc 683d 1ed7 483e
000000f0: a5c0 a3bd 2428 5ebd 24b3 b4bc 5173 0c3e
00000100: 4b73 22be 1210 2f3c d650 453d 7332 933d
00000110: 341c 30bd 1a4c 26bd 080f 3abc ac50 4e3d
00000120: 87a3 dc3d 5ecc 4bbe ab97 6bbd 2c35 c13d
00000130: 8069 acbd 3f99 07be ea1d 52bc afd4 dc3d
00000140: 373a ecbc 5fca 23bd 27d0 ec3d 227f 8bb9
00000150: 1278 023e b42a 65bd ca7b 08be 06b2 07bc
00000160: 55e0 c1bc dba6 c0bd 726d 02bd 56b6 d1bd
00000170: b5ab 8dbc 1110 75bd 8ee5 09be a57b b0bc
00000180: a619 c5bd 6349 3abe 69e6 a7bd e991 bf3d
00000190: ede1 b93d 0563 92bc cc59 803d fff3 a0bd
000001a0: 6d4b a3bc 2586 d1bd abc1 df3d 353b 18be
000001b0: 2dfe 193b 749e 3fbc 4fc9 093e a172 5d3d
000001c0: ac12 753d b4cb bebd 3d85 10be 9786 813d
000001d0: 7be7 da3d ed99 073e d2e7 0f3e 7b64 18be
000001e0: 1b86 fdbd 7684 a8bd 804d a13d 60ad 30be
000001f0: 7258 2cbd 31a4 88bb 7abc 123e 79ab 0ebe
00000200: 895c 903d 1719 a43c 97db 1a3d b9da 353e
00000210: ddd0 e33d e97c 323d fb05 4b3e 0db7 833c
00000220: fda6 c4bc 8deb 22be 76d6 9dbd 03c7 b83d
00000230: 8453 793e d573 773d 13e2 253e 4a14 953c
00000240: 92d5 573d 0678 733d 528c 96bd 61fa 5a3c
00000250: de73 803c c9b7 f8bd 46c4 e3bc d18b 48bc
00000260: 85dd bfbd eb0e b8bd 028d 603c 8d99 003e
00000270: fa5b a53c 5c98 4cbd 0bfd c83d 945e 983b
00000280: d4ed f1bc 2b74 ef3d 4eba cebd f665 cf3d
00000290: be41 93bd cb05 8ebc 4b5c 76bd 2fdf 3cbe
000002a0: 1aa6 ef3d 4b7a 03be 16d4 acbd 4d09 053e
000002b0: e5f2 55bd 71ff 3dbe a533 e53d 1b15 34bc
000002c0: cb47 f4bd 342c 92b9 b6d7 44bc e612 c43d
000002d0: 0c07 c6bc a389 bf3c 4a30 efbd e6b5 293e
000002e0: 4065 ddbc 6b78 e1be 2629 08bc d339 98bd
000002f0: 11e2 1bbe d368 8bbe a6ee a9bd 6c19 733f
00000300: d460 73be 68d6 493e 644a 27bd 480f 10be
00000310: 8fb9 69be 53bb d7bd 32fe 2c3f 33a1 743e
00000320: 8ace 84bd 55fb 2b3d 576b b6be 5716 91be
00000330: f39d 41be aaa0 463f 2ebb babc 78ea 56bd
00000340: 0164 26bd 176d 52be d42c a7bd 1a5f 463d
00000350: deac 39bd 465c 83bd 5822 a33c 16eb ddbc
00000360: d053 923d 7cea 173d 5c38 663d 568e 913d
00000370: 44b7 9a3c 8841 773d 6018 703d dce1 293d
00000380: 00f7 c739 10be abbb b82f 21bd caf2 e9bc
00000390: 9134 18bd e605 82bd 0873 6abc 61aa 8ebd
000003a0: d628 60bd ce79 9ebc f851 623c 6856 abbc
000003b0: 3ce9 3bbc 34e9 8b3c d044 c83b a483 a13c
000003c0: f41d 94bd d96a 83bd b472 213e 3bb9 2e3e
000003d0: 568f 90bc 98cb 94be e621 73bd 5bb2 14bc
000003e0: d9b1 a1be 06c4 7b3e 148a 9d3c ed78 28bd
000003f0: 37ba 9cbe 845f 82be 2edc 30be 1078 8f3d
0.061432052 0.0051700436 -0.031078776 -0.014936686 -0.34250674 0.011558101 -0.15397456 0.38925648
-0.10952792 0.07412913 0.22393192 0.18386975 0.101077855 -0.26911846 -0.23013648 -0.02673038
0.036302675 -0.0789607 -0.21562733 0.005066861 -0.15073587 0.043869633 0.059777305 0.025299467
0.3879227 0.042083636 -0.011342924 0.04749237 0.044347025 0.06604263 0.031091258 -0.071920626
0.0043326467 0.020740129 0.013473779 0.053353384 -0.027378969 0.06321317 0.022533916 -0.030614518
-0.005867511 0.050598167 -0.060527917 0.012391806 -0.015822217 -0.002565354 -0.020574432 0.02817227
-0.056341037 0.02982495 0.06093642 -0.065342605 0.061755218 0.04316906 0.051916555 -0.06659796
0.089029245 -0.07143239 0.056820158 0.1961331 -0.079957284 -0.0542375 -0.022058077 0.13715865
-0.15864293 0.010684984 0.048172794 0.07187357 -0.042995647 -0.04059992 -0.011356123 0.050369903
0.10773378 -0.19902179 -0.05751769 0.0943397 -0.0841856 -0.13242052 -0.012824515 0.10782754
-0.028836353 -0.039987918 0.115631394 -0.00026606867 0.12741116 -0.055948928 -0.13328472 -0.00828219
-0.02366654 -0.09406825 -0.031842656 -0.10239856 -0.01729379 -0.059829775 -0.13466474 -0.021543333
-0.09624033 -0.18192057 -0.08198244 0.09354002 0.09076295 -0.017869482 0.062671274 -0.078590386
-0.019933427 -0.10230664 0.10925611 -0.14866336 0.0023497448 -0.011695493 0.134557 0.054064397
0.05983226 -0.09316197 -0.14113326 0.06324499 0.10688683 0.13242312 0.14053276 -0.1488208
-0.12379094 -0.0822839 0.0787611 -0.17253637 -0.042076536 -0.0041699638 0.1432971 -0.13932599
0.070489 0.020031495 0.037807073 0.17759217 0.11123822 0.043576155 0.198265 0.016078496
-0.024005407 -0.15910168 -0.07706921 0.090223335 0.24348265 0.0604132 0.16199522 0.018198151
0.05269391 0.059440635 -0.07350983 0.013365359 0.01568025 -0.12144429 -0.027803551 -0.012240366
-0.09368423 -0.089872204 0.013705494 0.12558575 0.02018546 -0.04994999 0.09813889 0.0046499465
-0.02953235 0.11692079 -0.100941285 0.101268694 -0.07190274 -0.017336747 -0.06014661 -0.18444513
0.11701603 -0.1283962 -0.0843889 0.12991829 -0.052233595 -0.18554474 0.11191491 -0.01099136
-0.11927756 -0.00027880224 -0.01201432 0.09573917 -0.024173282 0.02338106 -0.11679132 0.16573295
-0.027025819 -0.44037184 -0.008310592 -0.07432904 -0.15222956 -0.27228412 -0.08297472 0.94960666
-0.23767406 0.19710696 -0.04084243 -0.1406833 -0.22824691 -0.10533776 0.6757537 0.23889618
-0.06484707 0.041987736 -0.3562877 -0.28337356 -0.18907909 0.77588904 -0.022794332 -0.0524697
-0.040622715 -0.20549427 -0.08162847 0.04843054 -0.045330875 -0.06414084 0.019913837 -0.027089637
0.07144892 0.037088856 0.056206092 0.071072266 0.018886216 0.06036523 0.058616996 0.041475162
0.00038140267 -0.005241163 -0.03935215 -0.028558154 -0.037159506 -0.06348781 -0.014309652 -0.06966091
-0.054726444 -0.01934519 0.013813488 -0.020915225 -0.011469182 0.017078973 0.0061117187 0.019716091
-0.072322756 -0.06416864 0.15766412 0.17062847 -0.017646473 -0.2906158 -0.0593585 -0.009075726
-0.31581 0.24586496 0.01923088 -0.04113095 -0.3061082 -0.25463498 -0.17271492 0.07005322

i2o.bias f4 [9]
00000000: 4cfc 553e 2ec2 85be d0c3 fe3c 08c6 a4bc
00000010: f767 32bd e040 513d a563 833e 1acb 903c
00000020: 3e34 a7bd
0.20897025 -0.2612471 0.03109923 -0.02011396 -0.04355618 0.05108726 0.2566196 0.017674971
-0.08164261
